node {
  name: "global_step/Initializer/zeros"
  op: "Const"
  attr {
    key: "_class"
    value {
      list {
        s: "loc:@global_step"
      }
    }
  }
  attr {
    key: "_output_shapes"
    value {
      list {
        shape {
        }
      }
    }
  }
  attr {
    key: "dtype"
    value {
      type: DT_INT64
    }
  }
  attr {
    key: "value"
    value {
      tensor {
        dtype: DT_INT64
        tensor_shape {
        }
        int64_val: 0
      }
    }
  }
}
node {
  name: "global_step"
  op: "VarHandleOp"
  attr {
    key: "_class"
    value {
      list {
        s: "loc:@global_step"
      }
    }
  }
  attr {
    key: "_output_shapes"
    value {
      list {
        shape {
        }
      }
    }
  }
  attr {
    key: "container"
    value {
      s: ""
    }
  }
  attr {
    key: "dtype"
    value {
      type: DT_INT64
    }
  }
  attr {
    key: "shape"
    value {
      shape {
      }
    }
  }
  attr {
    key: "shared_name"
    value {
      s: "global_step"
    }
  }
}
node {
  name: "global_step/IsInitialized/VarIsInitializedOp"
  op: "VarIsInitializedOp"
  input: "global_step"
  attr {
    key: "_output_shapes"
    value {
      list {
        shape {
        }
      }
    }
  }
}
node {
  name: "global_step/Assign"
  op: "AssignVariableOp"
  input: "global_step"
  input: "global_step/Initializer/zeros"
  attr {
    key: "dtype"
    value {
      type: DT_INT64
    }
  }
}
node {
  name: "global_step/Read/ReadVariableOp"
  op: "ReadVariableOp"
  input: "global_step"
  attr {
    key: "_output_shapes"
    value {
      list {
        shape {
        }
      }
    }
  }
  attr {
    key: "dtype"
    value {
      type: DT_INT64
    }
  }
}
node {
  name: "global_step/VarIsInitializedOp"
  op: "VarIsInitializedOp"
  input: "global_step"
  attr {
    key: "_output_shapes"
    value {
      list {
        shape {
        }
      }
    }
  }
}
node {
  name: "global_step/cond"
  op: "If"
  input: "global_step/VarIsInitializedOp"
  input: "global_step"
  input: "global_step/Initializer/zeros"
  attr {
    key: "Tcond"
    value {
      type: DT_BOOL
    }
  }
  attr {
    key: "Tin"
    value {
      list {
        type: DT_RESOURCE
        type: DT_INT64
      }
    }
  }
  attr {
    key: "Tout"
    value {
      list {
        type: DT_INT64
      }
    }
  }
  attr {
    key: "_lower_using_switch_merge"
    value {
      b: true
    }
  }
  attr {
    key: "_output_shapes"
    value {
      list {
        shape {
        }
      }
    }
  }
  attr {
    key: "else_branch"
    value {
      func {
        name: "global_step_cond_false_6623"
      }
    }
  }
  attr {
    key: "output_shapes"
    value {
      list {
        shape {
        }
      }
    }
  }
  attr {
    key: "then_branch"
    value {
      func {
        name: "global_step_cond_true_6622"
      }
    }
  }
}
node {
  name: "global_step/cond/Identity"
  op: "Identity"
  input: "global_step/cond"
  attr {
    key: "T"
    value {
      type: DT_INT64
    }
  }
  attr {
    key: "_output_shapes"
    value {
      list {
        shape {
        }
      }
    }
  }
}
node {
  name: "global_step/add/y"
  op: "Const"
  attr {
    key: "_output_shapes"
    value {
      list {
        shape {
        }
      }
    }
  }
  attr {
    key: "dtype"
    value {
      type: DT_INT64
    }
  }
  attr {
    key: "value"
    value {
      tensor {
        dtype: DT_INT64
        tensor_shape {
        }
        int64_val: 0
      }
    }
  }
}
node {
  name: "global_step/add"
  op: "AddV2"
  input: "global_step/cond/Identity"
  input: "global_step/add/y"
  attr {
    key: "T"
    value {
      type: DT_INT64
    }
  }
  attr {
    key: "_output_shapes"
    value {
      list {
        shape {
        }
      }
    }
  }
}
node {
  name: "normalize_element/component_0"
  op: "Const"
  device: "/device:CPU:0"
  attr {
    key: "_output_shapes"
    value {
      list {
        shape {
          dim {
            size: 627
          }
        }
      }
    }
  }
  attr {
    key: "dtype"
    value {
      type: DT_DOUBLE
    }
  }
  attr {
    key: "value"
    value {
      tensor {
        dtype: DT_DOUBLE
        tensor_shape {
          dim {
            size: 627
          }
        }
        tensor_content: "…"
      }
    }
  }
}
node {
  name: "normalize_element/component_1"
  op: "Const"
  device: "/device:CPU:0"
  attr {
    key: "_output_shapes"
    value {
      list {
        shape {
          dim {
            size: 627
          }
        }
      }
    }
  }
  attr {
    key: "dtype"
    value {
      type: DT_STRING
    }
  }
  attr {
    key: "value"
    value {
      tensor {
        dtype: DT_STRING
        tensor_shape {
          dim {
            size: 627
          }
        }
        string_val: "n"
        string_val: "n"
        string_val: "y"
        string_val: "n"
        string_val: "y"
        string_val: "n"
        string_val: "n"
        string_val: "n"
        string_val: "n"
        string_val: "y"
        string_val: "n"
        string_val: "y"
        string_val: "n"
        string_val: "y"
        string_val: "n"
        string_val: "y"
        string_val: "y"
        string_val: "y"
        string_val: "n"
        string_val: "y"
        string_val: "n"
        string_val: "y"
        string_val: "y"
        string_val: "y"
        string_val: "n"
        string_val: "y"
        string_val: "y"
        string_val: "n"
        string_val: "n"
        string_val: "y"
        string_val: "n"
        string_val: "n"
        string_val: "n"
        string_val: "y"
        string_val: "n"
        string_val: "y"
        string_val: "n"
        string_val: "n"
        string_val: "n"
        string_val: "n"
        string_val: "n"
        string_val: "n"
        string_val: "n"
        string_val: "y"
        string_val: "y"
        string_val: "y"
        string_val: "n"
        string_val: "y"
        string_val: "y"
        string_val: "n"
        string_val: "n"
        string_val: "n"
        string_val: "y"
        string_val: "n"
        string_val: "n"
        string_val: "y"
        string_val: "y"
        string_val: "y"
        string_val: "y"
        string_val: "y"
        string_val: "y"
        string_val: "n"
        string_val: "y"
        string_val: "y"
        string_val: "y"
        string_val: "y"
        string_val: "y"
        string_val: "n"
        string_val: "y"
        string_val: "n"
        string_val: "y"
        string_val: "n"
        string_val: "y"
        string_val: "y"
        string_val: "y"
        string_val: "n"
        string_val: "n"
        string_val: "n"
        string_val: "y"
        string_val: "y"
        string_val: "n"
        string_val: "y"
        string_val: "n"
        string_val: "y"
        string_val: "y"
        string_val: "n"
        string_val: "y"
        string_val: "n"
        string_val: "y"
        string_val: "y"
        string_val: "y"
        string_val: "y"
        string_val: "n"
        string_val: "n"
        string_val: "y"
        string_val: "n"
        string_val: "y"
        string_val: "y"
        string_val: "y"
        string_val: "y"
        string_val: "y"
        string_val: "n"
        string_val: "y"
        string_val: "n"
        string_val: "n"
        string_val: "y"
        string_val: "y"
        string_val: "n"
        string_val: "y"
        string_val: "y"
        string_val: "y"
        string_val: "n"
        string_val: "y"
        string_val: "y"
        string_val: "n"
        string_val: "y"
        string_val: "n"
        string_val: "y"
        string_val: "y"
        string_val: "n"
        string_val: "n"
        string_val: "y"
        string_val: "y"
        string_val: "n"
        string_val: "n"
        string_val: "y"
        string_val: "n"
        string_val: "n"
        string_val: "n"
        string_val: "y"
        string_val: "y"
        string_val: "y"
        string_val: "n"
        string_val: "y"
        string_val: "n"
        string_val: "n"
        string_val: "n"
        string_val: "y"
        string_val: "y"
        string_val: "y"
        string_val: "n"
        string_val: "n"
        string_val: "y"
        string_val: "y"
        string_val: "y"
        string_val: "y"
        string_val: "y"
        string_val: "y"
        string_val: "n"
        string_val: "y"
        string_val: "n"
        string_val: "n"
        string_val: "y"
        string_val: "y"
        string_val: "y"
        string_val: "y"
        string_val: "y"
        string_val: "n"
        string_val: "n"
        string_val: "y"
        string_val: "n"
        string_val: "y"
        string_val: "y"
        string_val: "y"
        string_val: "y"
        string_val: "y"
        string_val: "y"
        string_val: "y"
        string_val: "n"
        string_val: "n"
        string_val: "y"
        string_val: "y"
        string_val: "y"
        string_val: "n"
        string_val: "y"
        string_val: "y"
        string_val: "n"
        string_val: "n"
        string_val: "y"
        string_val: "y"
        string_val: "n"
        string_val: "n"
        string_val: "y"
        string_val: "n"
        string_val: "n"
        string_val: "n"
        string_val: "y"
        string_val: "y"
        string_val: "n"
        string_val: "y"
        string_val: "n"
        string_val: "y"
        string_val: "y"
        string_val: "y"
        string_val: "n"
        string_val: "n"
        string_val: "n"
        string_val: "y"
        string_val: "y"
        string_val: "y"
        string_val: "n"
        string_val: "n"
        string_val: "y"
        string_val: "n"
        string_val: "y"
        string_val: "y"
        string_val: "n"
        string_val: "n"
        string_val: "y"
        string_val: "y"
        string_val: "y"
        string_val: "y"
        string_val: "y"
        string_val: "y"
        string_val: "y"
        string_val: "n"
        string_val: "y"
        string_val: "y"
        string_val: "y"
        string_val: "y"
        string_val: "y"
        string_val: "n"
        string_val: "n"
        string_val: "y"
        string_val: "y"
        string_val: "n"
        string_val: "n"
        string_val: "y"
        string_val: "n"
        string_val: "n"
        string_val: "n"
        string_val: "n"
        string_val: "y"
        string_val: "y"
        string_val: "n"
        string_val: "n"
        string_val: "y"
        string_val: "y"
        string_val: "n"
        string_val: "n"
        string_val: "n"
        string_val: "n"
        string_val: "y"
        string_val: "n"
        string_val: "y"
        string_val: "y"
        string_val: "y"
        string_val: "y"
        string_val: "y"
        string_val: "y"
        string_val: "y"
        string_val: "n"
        string_val: "n"
        string_val: "n"
        string_val: "y"
        string_val: "y"
        string_val: "n"
        string_val: "y"
        string_val: "y"
        string_val: "y"
        string_val: "n"
        string_val: "n"
        string_val: "n"
        string_val: "y"
        string_val: "n"
        string_val: "n"
        string_val: "y"
        string_val: "y"
        string_val: "y"
        string_val: "n"
        string_val: "y"
        string_val: "n"
        string_val: "n"
        string_val: "y"
        string_val: "y"
        string_val: "y"
        string_val: "y"
        string_val: "y"
        string_val: "n"
        string_val: "y"
        string_val: "y"
        string_val: "n"
        string_val: "y"
        string_val: "n"
        string_val: "n"
        string_val: "y"
        string_val: "y"
        string_val: "y"
        string_val: "y"
        string_val: "y"
        string_val: "y"
        string_val: "n"
        string_val: "n"
        string_val: "n"
        string_val: "y"
        string_val: "n"
        string_val: "y"
        string_val: "y"
        string_val: "y"
        string_val: "y"
        string_val: "y"
        string_val: "n"
        string_val: "n"
        string_val: "y"
        string_val: "y"
        string_val: "y"
        string_val: "n"
        string_val: "y"
        string_val: "y"
        string_val: "y"
        string_val: "y"
        string_val: "n"
        string_val: "n"
        string_val: "y"
        string_val: "n"
        string_val: "n"
        string_val: "n"
        string_val: "n"
        string_val: "y"
        string_val: "n"
        string_val: "y"
        string_val: "y"
        string_val: "y"
        string_val: "y"
        string_val: "n"
        string_val: "y"
        string_val: "n"
        string_val: "y"
        string_val: "n"
        string_val: "y"
        string_val: "y"
        string_val: "n"
        string_val: "y"
        string_val: "y"
        string_val: "y"
        string_val: "y"
        string_val: "y"
        string_val: "y"
        string_val: "y"
        string_val: "n"
        string_val: "y"
        string_val: "n"
        string_val: "y"
        string_val: "y"
        string_val: "n"
        string_val: "n"
        string_val: "n"
        string_val: "n"
        string_val: "y"
        string_val: "y"
        string_val: "n"
        string_val: "n"
        string_val: "n"
        string_val: "y"
        string_val: "n"
        string_val: "n"
        string_val: "y"
        string_val: "y"
        string_val: "n"
        string_val: "y"
        string_val: "y"
        string_val: "y"
        string_val: "n"
        string_val: "n"
        string_val: "y"
        string_val: "y"
        string_val: "n"
        string_val: "y"
        string_val: "y"
        string_val: "y"
        string_val: "n"
        string_val: "y"
        string_val: "y"
        string_val: "y"
        string_val: "n"
        string_val: "y"
        string_val: "y"
        string_val: "y"
        string_val: "y"
        string_val: "n"
        string_val: "n"
        string_val: "n"
        string_val: "n"
        string_val: "y"
        string_val: "n"
        string_val: "y"
        string_val: "y"
        string_val: "n"
        string_val: "n"
        string_val: "n"
        string_val: "n"
        string_val: "n"
        string_val: "n"
        string_val: "y"
        string_val: "n"
        string_val: "n"
        string_val: "y"
        string_val: "y"
        string_val: "y"
        string_val: "n"
        string_val: "y"
        string_val: "n"
        string_val: "n"
        string_val: "y"
        string_val: "y"
        string_val: "y"
        string_val: "n"
        string_val: "y"
        string_val: "n"
        string_val: "y"
        string_val: "y"
        string_val: "n"
        string_val: "y"
        string_val: "y"
        string_val: "y"
        string_val: "n"
        string_val: "y"
        string_val: "y"
        string_val: "n"
        string_val: "y"
        string_val: "y"
        string_val: "n"
        string_val: "y"
        string_val: "n"
        string_val: "n"
        string_val: "n"
        string_val: "y"
        string_val: "y"
        string_val: "y"
        string_val: "n"
        string_val: "y"
        string_val: "n"
        string_val: "y"
        string_val: "y"
        string_val: "n"
        string_val: "y"
        string_val: "n"
        string_val: "y"
        string_val: "n"
        string_val: "y"
        string_val: "n"
        string_val: "n"
        string_val: "y"
        string_val: "n"
        string_val: "y"
        string_val: "y"
        string_val: "y"
        string_val: "y"
        string_val: "y"
        string_val: "y"
        string_val: "y"
        string_val: "y"
        string_val: "n"
        string_val: "y"
        string_val: "y"
        string_val: "n"
        string_val: "n"
        string_val: "y"
        string_val: "y"
        string_val: "n"
        string_val: "n"
        string_val: "y"
        string_val: "y"
        string_val: "y"
        string_val: "n"
        string_val: "y"
        string_val: "n"
        string_val: "y"
        string_val: "n"
        string_val: "n"
        string_val: "y"
        string_val: "y"
        string_val: "n"
        string_val: "y"
        string_val: "y"
        string_val: "y"
        string_val: "n"
        string_val: "n"
        string_val: "y"
        string_val: "y"
        string_val: "y"
        string_val: "y"
        string_val: "n"
        string_val: "y"
        string_val: "y"
        string_val: "n"
        string_val: "n"
        string_val: "y"
        string_val: "y"
        string_val: "n"
        string_val: "n"
        string_val: "n"
        string_val: "y"
        string_val: "y"
        string_val: "y"
        string_val: "n"
        string_val: "y"
        string_val: "y"
        string_val: "y"
        string_val: "y"
        string_val: "n"
        string_val: "y"
        string_val: "y"
        string_val: "n"
        string_val: "y"
        string_val: "y"
        string_val: "y"
        string_val: "y"
        string_val: "y"
        string_val: "y"
        string_val: "n"
        string_val: "y"
        string_val: "n"
        string_val: "n"
        string_val: "n"
        string_val: "n"
        string_val: "y"
        string_val: "y"
        string_val: "y"
        string_val: "y"
        string_val: "y"
        string_val: "y"
        string_val: "y"
        string_val: "y"
        string_val: "n"
        string_val: "n"
        string_val: "n"
        string_val: "n"
        string_val: "n"
        string_val: "n"
        string_val: "y"
        string_val: "y"
        string_val: "n"
        string_val: "y"
        string_val: "y"
        string_val: "y"
        string_val: "y"
        string_val: "y"
        string_val: "n"
        string_val: "y"
        string_val: "n"
        string_val: "y"
        string_val: "y"
        string_val: "y"
        string_val: "y"
        string_val: "y"
        string_val: "y"
        string_val: "n"
        string_val: "y"
        string_val: "n"
        string_val: "y"
        string_val: "n"
        string_val: "y"
        string_val: "y"
        string_val: "y"
        string_val: "n"
        string_val: "y"
        string_val: "y"
        string_val: "y"
        string_val: "y"
        string_val: "y"
        string_val: "y"
        string_val: "n"
        string_val: "y"
        string_val: "n"
        string_val: "n"
        string_val: "y"
        string_val: "y"
        string_val: "y"
        string_val: "n"
        string_val: "y"
        string_val: "y"
        string_val: "y"
        string_val: "y"
        string_val: "y"
        string_val: "y"
        string_val: "n"
        string_val: "n"
        string_val: "n"
        string_val: "y"
        string_val: "n"
        string_val: "y"
        string_val: "y"
        string_val: "y"
        string_val: "n"
        string_val: "y"
        string_val: "y"
        string_val: "y"
        string_val: "n"
        string_val: "y"
        string_val: "y"
        string_val: "y"
        string_val: "y"
        string_val: "y"
        string_val: "y"
        string_val: "y"
        string_val: "n"
        string_val: "y"
        string_val: "n"
        string_val: "n"
        string_val: "n"
        string_val: "n"
        string_val: "n"
        string_val: "n"
        string_val: "y"
        string_val: "n"
        string_val: "n"
        string_val: "y"
        string_val: "y"
        string_val: "n"
        string_val: "y"
        string_val: "n"
        string_val: "y"
        string_val: "n"
        string_val: "y"
        string_val: "y"
        string_val: "n"
        string_val: "y"
        string_val: "y"
        string_val: "y"
        string_val: "y"
        string_val: "y"
        string_val: "y"
        string_val: "y"
        string_val: "y"
        string_val: "n"
        string_val: "y"
      }
    }
  }
}
node {
  name: "normalize_element/component_2"
  op: "Const"
  device: "/device:CPU:0"
  attr {
    key: "_output_shapes"
    value {
      list {
        shape {
          dim {
            size: 627
          }
        }
      }
    }
  }
  attr {
    key: "dtype"
    value {
      type: DT_STRING
    }
  }
  attr {
    key: "value"
    value {
      tensor {
        dtype: DT_STRING
        tensor_shape {
          dim {
            size: 627
          }
        }
        string_val: "Third"
        string_val: "First"
        string_val: "Third"
        string_val: "First"
        string_val: "Third"
        string_val: "Third"
        string_val: "Third"
        string_val: "Second"
        string_val: "Third"
        string_val: "Third"
        string_val: "Third"
        string_val: "Third"
        string_val: "Third"
        string_val: "Second"
        string_val: "Third"
        string_val: "Third"
        string_val: "Second"
        string_val: "First"
        string_val: "Third"
        string_val: "Third"
        string_val: "First"
        string_val: "Third"
        string_val: "Third"
        string_val: "First"
        string_val: "First"
        string_val: "Third"
        string_val: "Second"
        string_val: "First"
        string_val: "First"
        string_val: "Third"
        string_val: "Third"
        string_val: "Third"
        string_val: "Second"
        string_val: "Third"
        string_val: "Second"
        string_val: "Third"
        string_val: "Third"
        string_val: "Third"
        string_val: "Third"
        string_val: "Third"
        string_val: "First"
        string_val: "Second"
        string_val: "First"
        string_val: "First"
        string_val: "Second"
        string_val: "Third"
        string_val: "Third"
        string_val: "Third"
        string_val: "First"
        string_val: "First"
        string_val: "Third"
        string_val: "Third"
        string_val: "Third"
        string_val: "Third"
        string_val: "Third"
        string_val: "Second"
        string_val: "Second"
        string_val: "Third"
        string_val: "Third"
        string_val: "Third"
        string_val: "Third"
        string_val: "Second"
        string_val: "Third"
        string_val: "Third"
        string_val: "Third"
        string_val: "Third"
        string_val: "First"
        string_val: "Third"
        string_val: "Third"
        string_val: "First"
        string_val: "Third"
        string_val: "First"
        string_val: "Third"
        string_val: "Third"
        string_val: "First"
        string_val: "First"
        string_val: "Second"
        string_val: "Second"
        string_val: "Third"
        string_val: "Third"
        string_val: "First"
        string_val: "Third"
        string_val: "Third"
        string_val: "Third"
        string_val: "Third"
        string_val: "Third"
        string_val: "First"
        string_val: "Third"
        string_val: "Third"
        string_val: "Third"
        string_val: "Third"
        string_val: "Third"
        string_val: "Second"
        string_val: "First"
        string_val: "Third"
        string_val: "Second"
        string_val: "Second"
        string_val: "Third"
        string_val: "Third"
        string_val: "Third"
        string_val: "Third"
        string_val: "Third"
        string_val: "Second"
        string_val: "First"
        string_val: "First"
        string_val: "Third"
        string_val: "First"
        string_val: "Third"
        string_val: "Third"
        string_val: "Third"
        string_val: "Second"
        string_val: "Third"
        string_val: "Second"
        string_val: "Third"
        string_val: "Third"
        string_val: "Third"
        string_val: "First"
        string_val: "Third"
        string_val: "Third"
        string_val: "Third"
        string_val: "Third"
        string_val: "Third"
        string_val: "Third"
        string_val: "Third"
        string_val: "First"
        string_val: "Third"
        string_val: "Third"
        string_val: "Third"
        string_val: "Third"
        string_val: "First"
        string_val: "Second"
        string_val: "Third"
        string_val: "Third"
        string_val: "Second"
        string_val: "Third"
        string_val: "Third"
        string_val: "Third"
        string_val: "First"
        string_val: "Third"
        string_val: "Second"
        string_val: "Third"
        string_val: "Second"
        string_val: "First"
        string_val: "First"
        string_val: "Third"
        string_val: "Third"
        string_val: "Second"
        string_val: "Third"
        string_val: "Third"
        string_val: "Third"
        string_val: "Third"
        string_val: "Third"
        string_val: "Third"
        string_val: "Third"
        string_val: "First"
        string_val: "Second"
        string_val: "Third"
        string_val: "Third"
        string_val: "First"
        string_val: "Third"
        string_val: "Second"
        string_val: "Second"
        string_val: "Third"
        string_val: "Third"
        string_val: "Third"
        string_val: "Second"
        string_val: "Third"
        string_val: "Second"
        string_val: "Third"
        string_val: "First"
        string_val: "Third"
        string_val: "Second"
        string_val: "Third"
        string_val: "Second"
        string_val: "Second"
        string_val: "Second"
        string_val: "Third"
        string_val: "Third"
        string_val: "Third"
        string_val: "Third"
        string_val: "First"
        string_val: "Second"
        string_val: "Third"
        string_val: "Third"
        string_val: "Third"
        string_val: "Third"
        string_val: "First"
        string_val: "First"
        string_val: "Second"
        string_val: "Third"
        string_val: "Third"
        string_val: "First"
        string_val: "Third"
        string_val: "Second"
        string_val: "Third"
        string_val: "Third"
        string_val: "First"
        string_val: "First"
        string_val: "First"
        string_val: "Third"
        string_val: "Second"
        string_val: "First"
        string_val: "Third"
        string_val: "First"
        string_val: "Third"
        string_val: "Second"
        string_val: "Third"
        string_val: "Third"
        string_val: "Third"
        string_val: "Third"
        string_val: "First"
        string_val: "First"
        string_val: "Second"
        string_val: "Third"
        string_val: "First"
        string_val: "First"
        string_val: "Third"
        string_val: "Third"
        string_val: "Second"
        string_val: "Third"
        string_val: "First"
        string_val: "First"
        string_val: "Second"
        string_val: "First"
        string_val: "First"
        string_val: "First"
        string_val: "Second"
        string_val: "Third"
        string_val: "Second"
        string_val: "Second"
        string_val: "First"
        string_val: "First"
        string_val: "Third"
        string_val: "Third"
        string_val: "Second"
        string_val: "Third"
        string_val: "First"
        string_val: "Third"
        string_val: "Third"
        string_val: "Third"
        string_val: "First"
        string_val: "First"
        string_val: "Third"
        string_val: "First"
        string_val: "Third"
        string_val: "First"
        string_val: "Second"
        string_val: "Second"
        string_val: "Second"
        string_val: "Second"
        string_val: "Second"
        string_val: "Third"
        string_val: "Third"
        string_val: "Third"
        string_val: "Third"
        string_val: "Third"
        string_val: "First"
        string_val: "Second"
        string_val: "Third"
        string_val: "Third"
        string_val: "Third"
        string_val: "Second"
        string_val: "Third"
        string_val: "Third"
        string_val: "Third"
        string_val: "First"
        string_val: "Third"
        string_val: "Third"
        string_val: "First"
        string_val: "Third"
        string_val: "Third"
        string_val: "First"
        string_val: "First"
        string_val: "Third"
        string_val: "First"
        string_val: "Third"
        string_val: "Third"
        string_val: "Second"
        string_val: "Third"
        string_val: "Third"
        string_val: "Second"
        string_val: "First"
        string_val: "Third"
        string_val: "First"
        string_val: "Third"
        string_val: "Third"
        string_val: "Third"
        string_val: "Second"
        string_val: "Second"
        string_val: "Third"
        string_val: "Third"
        string_val: "Third"
        string_val: "Second"
        string_val: "Second"
        string_val: "Third"
        string_val: "Third"
        string_val: "Third"
        string_val: "Third"
        string_val: "Second"
        string_val: "Third"
        string_val: "Third"
        string_val: "Second"
        string_val: "Second"
        string_val: "Second"
        string_val: "Third"
        string_val: "Third"
        string_val: "Third"
        string_val: "Second"
        string_val: "Third"
        string_val: "Third"
        string_val: "First"
        string_val: "Third"
        string_val: "Second"
        string_val: "Third"
        string_val: "First"
        string_val: "First"
        string_val: "Second"
        string_val: "First"
        string_val: "Second"
        string_val: "Second"
        string_val: "Third"
        string_val: "Second"
        string_val: "Third"
        string_val: "First"
        string_val: "Third"
        string_val: "First"
        string_val: "Second"
        string_val: "First"
        string_val: "First"
        string_val: "Third"
        string_val: "First"
        string_val: "First"
        string_val: "First"
        string_val: "Third"
        string_val: "First"
        string_val: "Third"
        string_val: "Third"
        string_val: "First"
        string_val: "Third"
        string_val: "Third"
        string_val: "Third"
        string_val: "Second"
        string_val: "Second"
        string_val: "First"
        string_val: "Second"
        string_val: "Third"
        string_val: "Third"
        string_val: "Third"
        string_val: "Second"
        string_val: "Third"
        string_val: "First"
        string_val: "Third"
        string_val: "First"
        string_val: "First"
        string_val: "Third"
        string_val: "Third"
        string_val: "First"
        string_val: "Third"
        string_val: "First"
        string_val: "Third"
        string_val: "Third"
        string_val: "Third"
        string_val: "First"
        string_val: "Second"
        string_val: "First"
        string_val: "Third"
        string_val: "First"
        string_val: "Third"
        string_val: "First"
        string_val: "Second"
        string_val: "Second"
        string_val: "Third"
        string_val: "First"
        string_val: "Third"
        string_val: "First"
        string_val: "Third"
        string_val: "Third"
        string_val: "Second"
        string_val: "First"
        string_val: "Second"
        string_val: "Second"
        string_val: "Third"
        string_val: "Third"
        string_val: "Third"
        string_val: "Second"
        string_val: "First"
        string_val: "First"
        string_val: "First"
        string_val: "First"
        string_val: "Third"
        string_val: "Third"
        string_val: "First"
        string_val: "Second"
        string_val: "Second"
        string_val: "Third"
        string_val: "First"
        string_val: "Second"
        string_val: "Third"
        string_val: "Third"
        string_val: "First"
        string_val: "First"
        string_val: "First"
        string_val: "Third"
        string_val: "Third"
        string_val: "Third"
        string_val: "Third"
        string_val: "Third"
        string_val: "Third"
        string_val: "Third"
        string_val: "Third"
        string_val: "Second"
        string_val: "First"
        string_val: "First"
        string_val: "Third"
        string_val: "Second"
        string_val: "Second"
        string_val: "First"
        string_val: "Second"
        string_val: "First"
        string_val: "Third"
        string_val: "Third"
        string_val: "First"
        string_val: "Third"
        string_val: "Third"
        string_val: "Second"
        string_val: "Third"
        string_val: "Second"
        string_val: "Third"
        string_val: "Third"
        string_val: "First"
        string_val: "First"
        string_val: "Third"
        string_val: "Third"
        string_val: "First"
        string_val: "Second"
        string_val: "First"
        string_val: "Third"
        string_val: "Third"
        string_val: "Third"
        string_val: "Third"
        string_val: "Second"
        string_val: "Third"
        string_val: "Second"
        string_val: "Third"
        string_val: "First"
        string_val: "Second"
        string_val: "First"
        string_val: "Third"
        string_val: "Third"
        string_val: "First"
        string_val: "Third"
        string_val: "First"
        string_val: "Third"
        string_val: "Second"
        string_val: "Third"
        string_val: "Third"
        string_val: "Third"
        string_val: "Third"
        string_val: "Third"
        string_val: "Third"
        string_val: "First"
        string_val: "Third"
        string_val: "Third"
        string_val: "Third"
        string_val: "Second"
        string_val: "Third"
        string_val: "Second"
        string_val: "Third"
        string_val: "Third"
        string_val: "First"
        string_val: "First"
        string_val: "Third"
        string_val: "Third"
        string_val: "Second"
        string_val: "Third"
        string_val: "Third"
        string_val: "Second"
        string_val: "First"
        string_val: "Second"
        string_val: "Second"
        string_val: "Third"
        string_val: "Third"
        string_val: "First"
        string_val: "First"
        string_val: "Third"
        string_val: "Third"
        string_val: "Second"
        string_val: "Third"
        string_val: "Third"
        string_val: "First"
        string_val: "First"
        string_val: "Third"
        string_val: "Third"
        string_val: "First"
        string_val: "Third"
        string_val: "First"
        string_val: "First"
        string_val: "Third"
        string_val: "Second"
        string_val: "First"
        string_val: "Third"
        string_val: "First"
        string_val: "First"
        string_val: "First"
        string_val: "Third"
        string_val: "Third"
        string_val: "First"
        string_val: "Second"
        string_val: "Third"
        string_val: "Third"
        string_val: "Second"
        string_val: "Second"
        string_val: "First"
        string_val: "Second"
        string_val: "Second"
        string_val: "Third"
        string_val: "First"
        string_val: "Third"
        string_val: "Second"
        string_val: "Second"
        string_val: "Second"
        string_val: "First"
        string_val: "Third"
        string_val: "Third"
        string_val: "First"
        string_val: "First"
        string_val: "Third"
        string_val: "First"
        string_val: "Second"
        string_val: "Third"
        string_val: "Third"
        string_val: "Third"
        string_val: "Second"
        string_val: "Third"
        string_val: "Third"
        string_val: "Third"
        string_val: "Third"
        string_val: "Third"
        string_val: "First"
        string_val: "First"
        string_val: "Third"
        string_val: "Third"
        string_val: "Third"
        string_val: "Second"
        string_val: "Third"
        string_val: "Third"
        string_val: "Third"
        string_val: "First"
        string_val: "First"
        string_val: "Third"
        string_val: "Third"
        string_val: "Third"
        string_val: "First"
        string_val: "Third"
        string_val: "Second"
        string_val: "Third"
        string_val: "First"
        string_val: "Third"
        string_val: "Second"
        string_val: "First"
        string_val: "Third"
        string_val: "Third"
        string_val: "Third"
        string_val: "Second"
        string_val: "Second"
        string_val: "First"
        string_val: "Third"
        string_val: "First"
        string_val: "Second"
        string_val: "First"
        string_val: "Third"
        string_val: "Third"
        string_val: "Second"
        string_val: "Third"
        string_val: "First"
        string_val: "Third"
        string_val: "Second"
        string_val: "Third"
        string_val: "First"
        string_val: "Third"
        string_val: "Third"
        string_val: "Third"
        string_val: "Third"
        string_val: "Third"
        string_val: "Third"
        string_val: "Third"
        string_val: "Third"
        string_val: "Third"
        string_val: "First"
        string_val: "Third"
        string_val: "Third"
        string_val: "First"
        string_val: "Second"
        string_val: "First"
        string_val: "Third"
        string_val: "Third"
        string_val: "Third"
        string_val: "Third"
        string_val: "Second"
        string_val: "First"
        string_val: "Third"
        string_val: "First"
        string_val: "Third"
        string_val: "First"
        string_val: "First"
        string_val: "Third"
        string_val: "Third"
        string_val: "Second"
        string_val: "Second"
        string_val: "Second"
        string_val: "First"
        string_val: "Third"
        string_val: "Third"
        string_val: "First"
        string_val: "First"
        string_val: "Third"
        string_val: "Second"
        string_val: "Third"
        string_val: "Third"
        string_val: "Third"
        string_val: "Third"
        string_val: "Third"
        string_val: "Second"
        string_val: "Third"
        string_val: "First"
        string_val: "Third"
        string_val: "Third"
      }
    }
  }
}
node {
  name: "normalize_element/component_3"
  op: "Const"
  device: "/device:CPU:0"
  attr {
    key: "_output_shapes"
    value {
      list {
        shape {
          dim {
            size: 627
          }
        }
      }
    }
  }
  attr {
    key: "dtype"
    value {
      type: DT_STRING
    }
  }
  attr {
    key: "value"
    value {
      tensor {
        dtype: DT_STRING
        tensor_shape {
          dim {
            size: 627
          }
        }
        string_val: "unknown"
        string_val: "C"
        string_val: "unknown"
        string_val: "C"
        string_val: "unknown"
        string_val: "unknown"
        string_val: "unknown"
        string_val: "unknown"
        string_val: "G"
        string_val: "unknown"
        string_val: "unknown"
        string_val: "unknown"
        string_val: "unknown"
        string_val: "unknown"
        string_val: "unknown"
        string_val: "unknown"
        string_val: "unknown"
        string_val: "A"
        string_val: "unknown"
        string_val: "unknown"
        string_val: "C"
        string_val: "unknown"
        string_val: "unknown"
        string_val: "unknown"
        string_val: "B"
        string_val: "unknown"
        string_val: "unknown"
        string_val: "unknown"
        string_val: "unknown"
        string_val: "unknown"
        string_val: "unknown"
        string_val: "unknown"
        string_val: "unknown"
        string_val: "unknown"
        string_val: "unknown"
        string_val: "unknown"
        string_val: "unknown"
        string_val: "unknown"
        string_val: "unknown"
        string_val: "unknown"
        string_val: "D"
        string_val: "unknown"
        string_val: "B"
        string_val: "C"
        string_val: "unknown"
        string_val: "unknown"
        string_val: "unknown"
        string_val: "unknown"
        string_val: "B"
        string_val: "C"
        string_val: "unknown"
        string_val: "unknown"
        string_val: "unknown"
        string_val: "unknown"
        string_val: "unknown"
        string_val: "unknown"
        string_val: "unknown"
        string_val: "unknown"
        string_val: "F"
        string_val: "unknown"
        string_val: "unknown"
        string_val: "unknown"
        string_val: "unknown"
        string_val: "unknown"
        string_val: "unknown"
        string_val: "unknown"
        string_val: "unknown"
        string_val: "unknown"
        string_val: "unknown"
        string_val: "C"
        string_val: "unknown"
        string_val: "E"
        string_val: "unknown"
        string_val: "unknown"
        string_val: "A"
        string_val: "D"
        string_val: "unknown"
        string_val: "unknown"
        string_val: "unknown"
        string_val: "unknown"
        string_val: "D"
        string_val: "unknown"
        string_val: "unknown"
        string_val: "unknown"
        string_val: "unknown"
        string_val: "unknown"
        string_val: "C"
        string_val: "unknown"
        string_val: "unknown"
        string_val: "unknown"
        string_val: "unknown"
        string_val: "unknown"
        string_val: "unknown"
        string_val: "B"
        string_val: "unknown"
        string_val: "unknown"
        string_val: "E"
        string_val: "unknown"
        string_val: "unknown"
        string_val: "unknown"
        string_val: "unknown"
        string_val: "unknown"
        string_val: "unknown"
        string_val: "D"
        string_val: "C"
        string_val: "unknown"
        string_val: "B"
        string_val: "unknown"
        string_val: "unknown"
        string_val: "unknown"
        string_val: "unknown"
        string_val: "unknown"
        string_val: "unknown"
        string_val: "unknown"
        string_val: "unknown"
        string_val: "unknown"
        string_val: "unknown"
        string_val: "unknown"
        string_val: "unknown"
        string_val: "unknown"
        string_val: "unknown"
        string_val: "unknown"
        string_val: "unknown"
        string_val: "unknown"
        string_val: "E"
        string_val: "unknown"
        string_val: "unknown"
        string_val: "unknown"
        string_val: "unknown"
        string_val: "C"
        string_val: "unknown"
        string_val: "unknown"
        string_val: "unknown"
        string_val: "unknown"
        string_val: "unknown"
        string_val: "unknown"
        string_val: "unknown"
        string_val: "unknown"
        string_val: "unknown"
        string_val: "unknown"
        string_val: "unknown"
        string_val: "F"
        string_val: "B"
        string_val: "B"
        string_val: "unknown"
        string_val: "unknown"
        string_val: "unknown"
        string_val: "unknown"
        string_val: "unknown"
        string_val: "unknown"
        string_val: "G"
        string_val: "unknown"
        string_val: "unknown"
        string_val: "unknown"
        string_val: "A"
        string_val: "unknown"
        string_val: "unknown"
        string_val: "unknown"
        string_val: "D"
        string_val: "unknown"
        string_val: "unknown"
        string_val: "unknown"
        string_val: "unknown"
        string_val: "unknown"
        string_val: "unknown"
        string_val: "unknown"
        string_val: "unknown"
        string_val: "unknown"
        string_val: "unknown"
        string_val: "C"
        string_val: "unknown"
        string_val: "unknown"
        string_val: "unknown"
        string_val: "unknown"
        string_val: "unknown"
        string_val: "unknown"
        string_val: "unknown"
        string_val: "unknown"
        string_val: "unknown"
        string_val: "unknown"
        string_val: "C"
        string_val: "unknown"
        string_val: "unknown"
        string_val: "G"
        string_val: "unknown"
        string_val: "unknown"
        string_val: "unknown"
        string_val: "unknown"
        string_val: "unknown"
        string_val: "unknown"
        string_val: "unknown"
        string_val: "B"
        string_val: "unknown"
        string_val: "unknown"
        string_val: "unknown"
        string_val: "unknown"
        string_val: "C"
        string_val: "C"
        string_val: "unknown"
        string_val: "unknown"
        string_val: "unknown"
        string_val: "C"
        string_val: "unknown"
        string_val: "D"
        string_val: "unknown"
        string_val: "unknown"
        string_val: "unknown"
        string_val: "unknown"
        string_val: "unknown"
        string_val: "unknown"
        string_val: "A"
        string_val: "unknown"
        string_val: "D"
        string_val: "unknown"
        string_val: "C"
        string_val: "B"
        string_val: "unknown"
        string_val: "unknown"
        string_val: "E"
        string_val: "unknown"
        string_val: "unknown"
        string_val: "C"
        string_val: "unknown"
        string_val: "E"
        string_val: "C"
        string_val: "B"
        string_val: "unknown"
        string_val: "unknown"
        string_val: "unknown"
        string_val: "unknown"
        string_val: "C"
        string_val: "E"
        string_val: "unknown"
        string_val: "unknown"
        string_val: "unknown"
        string_val: "unknown"
        string_val: "C"
        string_val: "unknown"
        string_val: "unknown"
        string_val: "unknown"
        string_val: "C"
        string_val: "unknown"
        string_val: "unknown"
        string_val: "C"
        string_val: "unknown"
        string_val: "unknown"
        string_val: "unknown"
        string_val: "unknown"
        string_val: "unknown"
        string_val: "F"
        string_val: "unknown"
        string_val: "unknown"
        string_val: "unknown"
        string_val: "unknown"
        string_val: "unknown"
        string_val: "unknown"
        string_val: "E"
        string_val: "unknown"
        string_val: "unknown"
        string_val: "unknown"
        string_val: "unknown"
        string_val: "unknown"
        string_val: "unknown"
        string_val: "unknown"
        string_val: "unknown"
        string_val: "D"
        string_val: "unknown"
        string_val: "unknown"
        string_val: "B"
        string_val: "unknown"
        string_val: "unknown"
        string_val: "unknown"
        string_val: "C"
        string_val: "unknown"
        string_val: "unknown"
        string_val: "unknown"
        string_val: "unknown"
        string_val: "unknown"
        string_val: "unknown"
        string_val: "unknown"
        string_val: "unknown"
        string_val: "B"
        string_val: "unknown"
        string_val: "D"
        string_val: "G"
        string_val: "unknown"
        string_val: "unknown"
        string_val: "unknown"
        string_val: "unknown"
        string_val: "unknown"
        string_val: "unknown"
        string_val: "unknown"
        string_val: "unknown"
        string_val: "unknown"
        string_val: "unknown"
        string_val: "unknown"
        string_val: "unknown"
        string_val: "unknown"
        string_val: "unknown"
        string_val: "unknown"
        string_val: "unknown"
        string_val: "unknown"
        string_val: "unknown"
        string_val: "unknown"
        string_val: "unknown"
        string_val: "unknown"
        string_val: "unknown"
        string_val: "unknown"
        string_val: "unknown"
        string_val: "E"
        string_val: "C"
        string_val: "unknown"
        string_val: "unknown"
        string_val: "unknown"
        string_val: "E"
        string_val: "B"
        string_val: "unknown"
        string_val: "C"
        string_val: "unknown"
        string_val: "unknown"
        string_val: "unknown"
        string_val: "unknown"
        string_val: "unknown"
        string_val: "unknown"
        string_val: "unknown"
        string_val: "C"
        string_val: "unknown"
        string_val: "C"
        string_val: "C"
        string_val: "unknown"
        string_val: "E"
        string_val: "D"
        string_val: "E"
        string_val: "unknown"
        string_val: "E"
        string_val: "unknown"
        string_val: "unknown"
        string_val: "unknown"
        string_val: "unknown"
        string_val: "unknown"
        string_val: "unknown"
        string_val: "unknown"
        string_val: "D"
        string_val: "A"
        string_val: "unknown"
        string_val: "unknown"
        string_val: "unknown"
        string_val: "unknown"
        string_val: "unknown"
        string_val: "unknown"
        string_val: "B"
        string_val: "unknown"
        string_val: "C"
        string_val: "B"
        string_val: "unknown"
        string_val: "unknown"
        string_val: "unknown"
        string_val: "unknown"
        string_val: "C"
        string_val: "unknown"
        string_val: "unknown"
        string_val: "unknown"
        string_val: "C"
        string_val: "unknown"
        string_val: "unknown"
        string_val: "unknown"
        string_val: "unknown"
        string_val: "unknown"
        string_val: "D"
        string_val: "F"
        string_val: "unknown"
        string_val: "unknown"
        string_val: "B"
        string_val: "unknown"
        string_val: "B"
        string_val: "unknown"
        string_val: "unknown"
        string_val: "unknown"
        string_val: "C"
        string_val: "unknown"
        string_val: "unknown"
        string_val: "unknown"
        string_val: "unknown"
        string_val: "unknown"
        string_val: "unknown"
        string_val: "B"
        string_val: "unknown"
        string_val: "B"
        string_val: "B"
        string_val: "unknown"
        string_val: "unknown"
        string_val: "C"
        string_val: "unknown"
        string_val: "unknown"
        string_val: "unknown"
        string_val: "C"
        string_val: "unknown"
        string_val: "unknown"
        string_val: "unknown"
        string_val: "A"
        string_val: "unknown"
        string_val: "E"
        string_val: "unknown"
        string_val: "unknown"
        string_val: "unknown"
        string_val: "unknown"
        string_val: "unknown"
        string_val: "unknown"
        string_val: "unknown"
        string_val: "unknown"
        string_val: "unknown"
        string_val: "C"
        string_val: "E"
        string_val: "unknown"
        string_val: "unknown"
        string_val: "unknown"
        string_val: "A"
        string_val: "unknown"
        string_val: "B"
        string_val: "unknown"
        string_val: "unknown"
        string_val: "D"
        string_val: "unknown"
        string_val: "unknown"
        string_val: "unknown"
        string_val: "unknown"
        string_val: "unknown"
        string_val: "unknown"
        string_val: "unknown"
        string_val: "A"
        string_val: "unknown"
        string_val: "unknown"
        string_val: "unknown"
        string_val: "unknown"
        string_val: "unknown"
        string_val: "C"
        string_val: "unknown"
        string_val: "unknown"
        string_val: "unknown"
        string_val: "unknown"
        string_val: "unknown"
        string_val: "unknown"
        string_val: "unknown"
        string_val: "unknown"
        string_val: "D"
        string_val: "unknown"
        string_val: "D"
        string_val: "unknown"
        string_val: "unknown"
        string_val: "A"
        string_val: "unknown"
        string_val: "B"
        string_val: "unknown"
        string_val: "unknown"
        string_val: "unknown"
        string_val: "unknown"
        string_val: "unknown"
        string_val: "unknown"
        string_val: "unknown"
        string_val: "unknown"
        string_val: "D"
        string_val: "unknown"
        string_val: "unknown"
        string_val: "unknown"
        string_val: "unknown"
        string_val: "unknown"
        string_val: "unknown"
        string_val: "unknown"
        string_val: "unknown"
        string_val: "unknown"
        string_val: "E"
        string_val: "unknown"
        string_val: "unknown"
        string_val: "unknown"
        string_val: "unknown"
        string_val: "unknown"
        string_val: "unknown"
        string_val: "B"
        string_val: "unknown"
        string_val: "unknown"
        string_val: "unknown"
        string_val: "unknown"
        string_val: "B"
        string_val: "D"
        string_val: "unknown"
        string_val: "unknown"
        string_val: "unknown"
        string_val: "unknown"
        string_val: "unknown"
        string_val: "B"
        string_val: "B"
        string_val: "unknown"
        string_val: "unknown"
        string_val: "unknown"
        string_val: "unknown"
        string_val: "C"
        string_val: "E"
        string_val: "unknown"
        string_val: "unknown"
        string_val: "unknown"
        string_val: "unknown"
        string_val: "C"
        string_val: "C"
        string_val: "C"
        string_val: "unknown"
        string_val: "F"
        string_val: "C"
        string_val: "E"
        string_val: "unknown"
        string_val: "unknown"
        string_val: "unknown"
        string_val: "unknown"
        string_val: "E"
        string_val: "unknown"
        string_val: "unknown"
        string_val: "unknown"
        string_val: "B"
        string_val: "unknown"
        string_val: "unknown"
        string_val: "unknown"
        string_val: "unknown"
        string_val: "B"
        string_val: "unknown"
        string_val: "unknown"
        string_val: "C"
        string_val: "B"
        string_val: "unknown"
        string_val: "B"
        string_val: "unknown"
        string_val: "E"
        string_val: "unknown"
        string_val: "unknown"
        string_val: "unknown"
        string_val: "unknown"
        string_val: "unknown"
        string_val: "unknown"
        string_val: "unknown"
        string_val: "unknown"
        string_val: "D"
        string_val: "unknown"
        string_val: "unknown"
        string_val: "unknown"
        string_val: "unknown"
        string_val: "E"
        string_val: "unknown"
        string_val: "F"
        string_val: "unknown"
        string_val: "B"
        string_val: "D"
        string_val: "unknown"
        string_val: "unknown"
        string_val: "unknown"
        string_val: "B"
        string_val: "unknown"
        string_val: "unknown"
        string_val: "unknown"
        string_val: "unknown"
        string_val: "unknown"
        string_val: "unknown"
        string_val: "D"
        string_val: "unknown"
        string_val: "unknown"
        string_val: "unknown"
        string_val: "unknown"
        string_val: "unknown"
        string_val: "B"
        string_val: "unknown"
        string_val: "A"
        string_val: "unknown"
        string_val: "E"
        string_val: "unknown"
        string_val: "unknown"
        string_val: "unknown"
        string_val: "unknown"
        string_val: "B"
        string_val: "unknown"
        string_val: "unknown"
        string_val: "unknown"
        string_val: "B"
        string_val: "unknown"
        string_val: "unknown"
        string_val: "unknown"
        string_val: "unknown"
        string_val: "unknown"
        string_val: "unknown"
        string_val: "unknown"
        string_val: "unknown"
        string_val: "unknown"
        string_val: "E"
        string_val: "unknown"
        string_val: "unknown"
        string_val: "C"
        string_val: "unknown"
        string_val: "unknown"
        string_val: "unknown"
        string_val: "unknown"
        string_val: "unknown"
        string_val: "unknown"
        string_val: "unknown"
        string_val: "C"
        string_val: "unknown"
        string_val: "D"
        string_val: "unknown"
        string_val: "unknown"
        string_val: "E"
        string_val: "unknown"
        string_val: "unknown"
        string_val: "unknown"
        string_val: "unknown"
        string_val: "unknown"
        string_val: "A"
        string_val: "unknown"
        string_val: "unknown"
        string_val: "D"
        string_val: "B"
        string_val: "unknown"
        string_val: "unknown"
        string_val: "unknown"
        string_val: "unknown"
        string_val: "unknown"
        string_val: "unknown"
        string_val: "unknown"
        string_val: "unknown"
        string_val: "unknown"
        string_val: "B"
        string_val: "unknown"
        string_val: "unknown"
      }
    }
  }
}
node {
  name: "normalize_element/component_4"
  op: "Const"
  device: "/device:CPU:0"
  attr {
    key: "_output_shapes"
    value {
      list {
        shape {
          dim {
            size: 627
          }
        }
      }
    }
  }
  attr {
    key: "dtype"
    value {
      type: DT_STRING
    }
  }
  attr {
    key: "value"
    value {
      tensor {
        dtype: DT_STRING
        tensor_shape {
          dim {
            size: 627
          }
        }
        string_val: "Southampton"
        string_val: "Cherbourg"
        string_val: "Southampton"
        string_val: "Southampton"
        string_val: "Queenstown"
        string_val: "Southampton"
        string_val: "Southampton"
        string_val: "Cherbourg"
        string_val: "Southampton"
        string_val: "Southampton"
        string_val: "Southampton"
        string_val: "Southampton"
        string_val: "Queenstown"
        string_val: "Southampton"
        string_val: "Southampton"
        string_val: "Cherbourg"
        string_val: "Southampton"
        string_val: "Southampton"
        string_val: "Southampton"
        string_val: "Cherbourg"
        string_val: "Southampton"
        string_val: "Queenstown"
        string_val: "Southampton"
        string_val: "Cherbourg"
        string_val: "Cherbourg"
        string_val: "Queenstown"
        string_val: "Southampton"
        string_val: "Cherbourg"
        string_val: "Southampton"
        string_val: "Cherbourg"
        string_val: "Cherbourg"
        string_val: "Southampton"
        string_val: "Southampton"
        string_val: "Cherbourg"
        string_val: "Cherbourg"
        string_val: "Southampton"
        string_val: "Queenstown"
        string_val: "Cherbourg"
        string_val: "Southampton"
        string_val: "Southampton"
        string_val: "Cherbourg"
        string_val: "Southampton"
        string_val: "Cherbourg"
        string_val: "Southampton"
        string_val: "Southampton"
        string_val: "Cherbourg"
        string_val: "Southampton"
        string_val: "Cherbourg"
        string_val: "unknown"
        string_val: "Southampton"
        string_val: "Southampton"
        string_val: "Cherbourg"
        string_val: "Southampton"
        string_val: "Southampton"
        string_val: "Southampton"
        string_val: "Southampton"
        string_val: "Southampton"
        string_val: "Southampton"
        string_val: "Southampton"
        string_val: "Southampton"
        string_val: "Southampton"
        string_val: "Southampton"
        string_val: "Southampton"
        string_val: "Southampton"
        string_val: "Southampton"
        string_val: "Queenstown"
        string_val: "Southampton"
        string_val: "Southampton"
        string_val: "Southampton"
        string_val: "Southampton"
        string_val: "Southampton"
        string_val: "Southampton"
        string_val: "Southampton"
        string_val: "Southampton"
        string_val: "Cherbourg"
        string_val: "Cherbourg"
        string_val: "Southampton"
        string_val: "Southampton"
        string_val: "Southampton"
        string_val: "Southampton"
        string_val: "Southampton"
        string_val: "Southampton"
        string_val: "Southampton"
        string_val: "Southampton"
        string_val: "Southampton"
        string_val: "Queenstown"
        string_val: "Southampton"
        string_val: "Cherbourg"
        string_val: "Southampton"
        string_val: "Cherbourg"
        string_val: "Southampton"
        string_val: "Queenstown"
        string_val: "Southampton"
        string_val: "Cherbourg"
        string_val: "Southampton"
        string_val: "Cherbourg"
        string_val: "Southampton"
        string_val: "Queenstown"
        string_val: "Southampton"
        string_val: "Southampton"
        string_val: "Southampton"
        string_val: "Southampton"
        string_val: "Cherbourg"
        string_val: "Southampton"
        string_val: "Southampton"
        string_val: "Southampton"
        string_val: "Cherbourg"
        string_val: "Cherbourg"
        string_val: "Southampton"
        string_val: "Queenstown"
        string_val: "Southampton"
        string_val: "Southampton"
        string_val: "Southampton"
        string_val: "Southampton"
        string_val: "Southampton"
        string_val: "Southampton"
        string_val: "Cherbourg"
        string_val: "Queenstown"
        string_val: "Southampton"
        string_val: "Southampton"
        string_val: "Southampton"
        string_val: "Southampton"
        string_val: "Southampton"
        string_val: "Southampton"
        string_val: "Southampton"
        string_val: "Southampton"
        string_val: "Queenstown"
        string_val: "Southampton"
        string_val: "Southampton"
        string_val: "Cherbourg"
        string_val: "Southampton"
        string_val: "Southampton"
        string_val: "Southampton"
        string_val: "Cherbourg"
        string_val: "Southampton"
        string_val: "Southampton"
        string_val: "Queenstown"
        string_val: "Southampton"
        string_val: "Southampton"
        string_val: "Southampton"
        string_val: "Southampton"
        string_val: "Southampton"
        string_val: "Cherbourg"
        string_val: "Cherbourg"
        string_val: "Queenstown"
        string_val: "Queenstown"
        string_val: "Southampton"
        string_val: "Southampton"
        string_val: "Southampton"
        string_val: "Southampton"
        string_val: "Southampton"
        string_val: "Southampton"
        string_val: "Cherbourg"
        string_val: "Queenstown"
        string_val: "Cherbourg"
        string_val: "Southampton"
        string_val: "Southampton"
        string_val: "Queenstown"
        string_val: "Cherbourg"
        string_val: "Southampton"
        string_val: "Southampton"
        string_val: "Southampton"
        string_val: "Southampton"
        string_val: "Southampton"
        string_val: "Southampton"
        string_val: "Southampton"
        string_val: "Southampton"
        string_val: "Southampton"
        string_val: "Southampton"
        string_val: "Southampton"
        string_val: "Southampton"
        string_val: "Southampton"
        string_val: "Southampton"
        string_val: "Southampton"
        string_val: "Southampton"
        string_val: "Southampton"
        string_val: "Cherbourg"
        string_val: "Queenstown"
        string_val: "Southampton"
        string_val: "Cherbourg"
        string_val: "Queenstown"
        string_val: "Southampton"
        string_val: "Southampton"
        string_val: "Southampton"
        string_val: "Southampton"
        string_val: "Southampton"
        string_val: "Cherbourg"
        string_val: "Cherbourg"
        string_val: "Southampton"
        string_val: "Queenstown"
        string_val: "Southampton"
        string_val: "Southampton"
        string_val: "Queenstown"
        string_val: "Southampton"
        string_val: "Southampton"
        string_val: "Southampton"
        string_val: "Southampton"
        string_val: "Southampton"
        string_val: "Southampton"
        string_val: "Southampton"
        string_val: "Southampton"
        string_val: "Cherbourg"
        string_val: "Queenstown"
        string_val: "Southampton"
        string_val: "Southampton"
        string_val: "Southampton"
        string_val: "Queenstown"
        string_val: "Southampton"
        string_val: "Southampton"
        string_val: "Southampton"
        string_val: "Southampton"
        string_val: "Southampton"
        string_val: "Cherbourg"
        string_val: "Southampton"
        string_val: "Southampton"
        string_val: "Cherbourg"
        string_val: "Queenstown"
        string_val: "Southampton"
        string_val: "Queenstown"
        string_val: "Southampton"
        string_val: "Cherbourg"
        string_val: "Cherbourg"
        string_val: "Cherbourg"
        string_val: "Cherbourg"
        string_val: "Cherbourg"
        string_val: "Cherbourg"
        string_val: "Southampton"
        string_val: "Southampton"
        string_val: "Southampton"
        string_val: "Southampton"
        string_val: "Southampton"
        string_val: "Cherbourg"
        string_val: "Southampton"
        string_val: "Southampton"
        string_val: "Southampton"
        string_val: "Southampton"
        string_val: "Cherbourg"
        string_val: "Southampton"
        string_val: "Southampton"
        string_val: "Queenstown"
        string_val: "Southampton"
        string_val: "Southampton"
        string_val: "Southampton"
        string_val: "Southampton"
        string_val: "Southampton"
        string_val: "Southampton"
        string_val: "Southampton"
        string_val: "Southampton"
        string_val: "Southampton"
        string_val: "Southampton"
        string_val: "Southampton"
        string_val: "Southampton"
        string_val: "Cherbourg"
        string_val: "Southampton"
        string_val: "Cherbourg"
        string_val: "Southampton"
        string_val: "Southampton"
        string_val: "Southampton"
        string_val: "Queenstown"
        string_val: "Queenstown"
        string_val: "Southampton"
        string_val: "Cherbourg"
        string_val: "Cherbourg"
        string_val: "Southampton"
        string_val: "Queenstown"
        string_val: "Cherbourg"
        string_val: "Cherbourg"
        string_val: "Queenstown"
        string_val: "Cherbourg"
        string_val: "Southampton"
        string_val: "Southampton"
        string_val: "Cherbourg"
        string_val: "Cherbourg"
        string_val: "Southampton"
        string_val: "Cherbourg"
        string_val: "Southampton"
        string_val: "Southampton"
        string_val: "Southampton"
        string_val: "Southampton"
        string_val: "Queenstown"
        string_val: "Cherbourg"
        string_val: "Southampton"
        string_val: "Southampton"
        string_val: "Cherbourg"
        string_val: "Southampton"
        string_val: "Southampton"
        string_val: "Southampton"
        string_val: "Southampton"
        string_val: "Southampton"
        string_val: "Southampton"
        string_val: "Southampton"
        string_val: "Southampton"
        string_val: "Southampton"
        string_val: "Southampton"
        string_val: "Southampton"
        string_val: "Southampton"
        string_val: "Southampton"
        string_val: "Queenstown"
        string_val: "Southampton"
        string_val: "Southampton"
        string_val: "Southampton"
        string_val: "Southampton"
        string_val: "Southampton"
        string_val: "Southampton"
        string_val: "Cherbourg"
        string_val: "Queenstown"
        string_val: "Southampton"
        string_val: "Southampton"
        string_val: "Queenstown"
        string_val: "Southampton"
        string_val: "Southampton"
        string_val: "Southampton"
        string_val: "Southampton"
        string_val: "Southampton"
        string_val: "Southampton"
        string_val: "Southampton"
        string_val: "Southampton"
        string_val: "Southampton"
        string_val: "Southampton"
        string_val: "Southampton"
        string_val: "Southampton"
        string_val: "Southampton"
        string_val: "Southampton"
        string_val: "Southampton"
        string_val: "Cherbourg"
        string_val: "Southampton"
        string_val: "Southampton"
        string_val: "Cherbourg"
        string_val: "Cherbourg"
        string_val: "Cherbourg"
        string_val: "Southampton"
        string_val: "Southampton"
        string_val: "Southampton"
        string_val: "Southampton"
        string_val: "Southampton"
        string_val: "Southampton"
        string_val: "Southampton"
        string_val: "Southampton"
        string_val: "Queenstown"
        string_val: "Cherbourg"
        string_val: "Southampton"
        string_val: "Southampton"
        string_val: "Cherbourg"
        string_val: "Southampton"
        string_val: "Southampton"
        string_val: "Southampton"
        string_val: "Southampton"
        string_val: "Southampton"
        string_val: "Southampton"
        string_val: "Southampton"
        string_val: "Cherbourg"
        string_val: "Southampton"
        string_val: "Southampton"
        string_val: "Cherbourg"
        string_val: "Southampton"
        string_val: "Southampton"
        string_val: "Cherbourg"
        string_val: "Southampton"
        string_val: "Southampton"
        string_val: "Southampton"
        string_val: "Queenstown"
        string_val: "Southampton"
        string_val: "Cherbourg"
        string_val: "Southampton"
        string_val: "Southampton"
        string_val: "Southampton"
        string_val: "Cherbourg"
        string_val: "Southampton"
        string_val: "Southampton"
        string_val: "Southampton"
        string_val: "Southampton"
        string_val: "Southampton"
        string_val: "Southampton"
        string_val: "Southampton"
        string_val: "Cherbourg"
        string_val: "Cherbourg"
        string_val: "Queenstown"
        string_val: "Southampton"
        string_val: "Southampton"
        string_val: "Southampton"
        string_val: "Southampton"
        string_val: "Cherbourg"
        string_val: "Cherbourg"
        string_val: "Southampton"
        string_val: "Southampton"
        string_val: "Southampton"
        string_val: "Cherbourg"
        string_val: "Cherbourg"
        string_val: "Southampton"
        string_val: "Southampton"
        string_val: "Southampton"
        string_val: "Cherbourg"
        string_val: "Southampton"
        string_val: "Cherbourg"
        string_val: "Southampton"
        string_val: "Cherbourg"
        string_val: "Southampton"
        string_val: "Queenstown"
        string_val: "Southampton"
        string_val: "Cherbourg"
        string_val: "Cherbourg"
        string_val: "Southampton"
        string_val: "Southampton"
        string_val: "Queenstown"
        string_val: "Southampton"
        string_val: "Southampton"
        string_val: "Southampton"
        string_val: "Southampton"
        string_val: "Southampton"
        string_val: "Southampton"
        string_val: "Southampton"
        string_val: "Southampton"
        string_val: "Southampton"
        string_val: "Southampton"
        string_val: "Southampton"
        string_val: "Southampton"
        string_val: "Cherbourg"
        string_val: "Southampton"
        string_val: "Cherbourg"
        string_val: "Southampton"
        string_val: "Southampton"
        string_val: "Cherbourg"
        string_val: "Southampton"
        string_val: "Queenstown"
        string_val: "Southampton"
        string_val: "Southampton"
        string_val: "Southampton"
        string_val: "Southampton"
        string_val: "Cherbourg"
        string_val: "Cherbourg"
        string_val: "Cherbourg"
        string_val: "Southampton"
        string_val: "Southampton"
        string_val: "Southampton"
        string_val: "Cherbourg"
        string_val: "Southampton"
        string_val: "Southampton"
        string_val: "Southampton"
        string_val: "Queenstown"
        string_val: "Southampton"
        string_val: "Southampton"
        string_val: "Southampton"
        string_val: "Southampton"
        string_val: "Cherbourg"
        string_val: "Southampton"
        string_val: "Queenstown"
        string_val: "Southampton"
        string_val: "Southampton"
        string_val: "Queenstown"
        string_val: "Southampton"
        string_val: "Southampton"
        string_val: "Cherbourg"
        string_val: "Southampton"
        string_val: "Southampton"
        string_val: "Southampton"
        string_val: "Southampton"
        string_val: "Southampton"
        string_val: "Southampton"
        string_val: "Southampton"
        string_val: "Cherbourg"
        string_val: "Cherbourg"
        string_val: "Southampton"
        string_val: "Southampton"
        string_val: "Southampton"
        string_val: "Southampton"
        string_val: "Southampton"
        string_val: "Southampton"
        string_val: "Southampton"
        string_val: "Queenstown"
        string_val: "Southampton"
        string_val: "Southampton"
        string_val: "Southampton"
        string_val: "Southampton"
        string_val: "Southampton"
        string_val: "Southampton"
        string_val: "Southampton"
        string_val: "Southampton"
        string_val: "Southampton"
        string_val: "Southampton"
        string_val: "Southampton"
        string_val: "Southampton"
        string_val: "Southampton"
        string_val: "Cherbourg"
        string_val: "Cherbourg"
        string_val: "Southampton"
        string_val: "Southampton"
        string_val: "Southampton"
        string_val: "Southampton"
        string_val: "Southampton"
        string_val: "Southampton"
        string_val: "Southampton"
        string_val: "Cherbourg"
        string_val: "Southampton"
        string_val: "Southampton"
        string_val: "Queenstown"
        string_val: "Cherbourg"
        string_val: "Southampton"
        string_val: "Queenstown"
        string_val: "Southampton"
        string_val: "Southampton"
        string_val: "Cherbourg"
        string_val: "Cherbourg"
        string_val: "Southampton"
        string_val: "Southampton"
        string_val: "Southampton"
        string_val: "Southampton"
        string_val: "Cherbourg"
        string_val: "Southampton"
        string_val: "Queenstown"
        string_val: "Southampton"
        string_val: "Southampton"
        string_val: "Southampton"
        string_val: "Southampton"
        string_val: "Southampton"
        string_val: "Southampton"
        string_val: "Southampton"
        string_val: "Southampton"
        string_val: "Cherbourg"
        string_val: "Southampton"
        string_val: "Southampton"
        string_val: "Southampton"
        string_val: "Cherbourg"
        string_val: "Southampton"
        string_val: "Southampton"
        string_val: "Southampton"
        string_val: "Cherbourg"
        string_val: "Southampton"
        string_val: "Southampton"
        string_val: "Southampton"
        string_val: "Southampton"
        string_val: "Southampton"
        string_val: "Southampton"
        string_val: "Southampton"
        string_val: "Southampton"
        string_val: "Southampton"
        string_val: "Southampton"
        string_val: "Southampton"
        string_val: "Cherbourg"
        string_val: "Southampton"
        string_val: "Cherbourg"
        string_val: "Queenstown"
        string_val: "Southampton"
        string_val: "Southampton"
        string_val: "Southampton"
        string_val: "Southampton"
        string_val: "Queenstown"
        string_val: "Southampton"
        string_val: "Southampton"
        string_val: "Southampton"
        string_val: "Southampton"
        string_val: "Southampton"
        string_val: "Southampton"
        string_val: "Cherbourg"
        string_val: "Queenstown"
        string_val: "Southampton"
        string_val: "Southampton"
        string_val: "Cherbourg"
        string_val: "Southampton"
        string_val: "Southampton"
        string_val: "Southampton"
        string_val: "Southampton"
        string_val: "Cherbourg"
        string_val: "Southampton"
        string_val: "Southampton"
        string_val: "Southampton"
        string_val: "Southampton"
        string_val: "Southampton"
        string_val: "Southampton"
        string_val: "Southampton"
        string_val: "Southampton"
        string_val: "Southampton"
        string_val: "Southampton"
        string_val: "Southampton"
        string_val: "Southampton"
        string_val: "Southampton"
        string_val: "Southampton"
        string_val: "Cherbourg"
        string_val: "Southampton"
        string_val: "Southampton"
        string_val: "Southampton"
        string_val: "Southampton"
        string_val: "Queenstown"
        string_val: "Southampton"
        string_val: "Queenstown"
        string_val: "Cherbourg"
        string_val: "Cherbourg"
        string_val: "Southampton"
        string_val: "Southampton"
        string_val: "Cherbourg"
        string_val: "Southampton"
        string_val: "Southampton"
        string_val: "Cherbourg"
        string_val: "Southampton"
        string_val: "Cherbourg"
        string_val: "Cherbourg"
        string_val: "Southampton"
        string_val: "Southampton"
        string_val: "Cherbourg"
        string_val: "Southampton"
        string_val: "Cherbourg"
        string_val: "Southampton"
        string_val: "Southampton"
        string_val: "Southampton"
        string_val: "Southampton"
        string_val: "Southampton"
        string_val: "Cherbourg"
        string_val: "Southampton"
        string_val: "Southampton"
        string_val: "Southampton"
        string_val: "Cherbourg"
        string_val: "Southampton"
        string_val: "Southampton"
        string_val: "Southampton"
        string_val: "Southampton"
        string_val: "Southampton"
        string_val: "Southampton"
        string_val: "Cherbourg"
        string_val: "Cherbourg"
        string_val: "Southampton"
        string_val: "Southampton"
        string_val: "Southampton"
        string_val: "Southampton"
        string_val: "Southampton"
        string_val: "Southampton"
        string_val: "Southampton"
        string_val: "Southampton"
        string_val: "Queenstown"
      }
    }
  }
}
node {
  name: "normalize_element/component_5"
  op: "Const"
  device: "/device:CPU:0"
  attr {
    key: "_output_shapes"
    value {
      list {
        shape {
          dim {
            size: 627
          }
        }
      }
    }
  }
  attr {
    key: "dtype"
    value {
      type: DT_DOUBLE
    }
  }
  attr {
    key: "value"
    value {
      tensor {
        dtype: DT_DOUBLE
        tensor_shape {
          dim {
            size: 627
          }
        }
        tensor_content: "…"
      }
    }
  }
}
node {
  name: "normalize_element/component_6"
  op: "Const"
  device: "/device:CPU:0"
  attr {
    key: "_output_shapes"
    value {
      list {
        shape {
          dim {
            size: 627
          }
        }
      }
    }
  }
  attr {
    key: "dtype"
    value {
      type: DT_INT64
    }
  }
  attr {
    key: "value"
    value {
      tensor {
        dtype: DT_INT64
        tensor_shape {
          dim {
            size: 627
          }
        }
        tensor_content: "…"
      }
    }
  }
}
node {
  name: "normalize_element/component_7"
  op: "Const"
  device: "/device:CPU:0"
  attr {
    key: "_output_shapes"
    value {
      list {
        shape {
          dim {
            size: 627
          }
        }
      }
    }
  }
  attr {
    key: "dtype"
    value {
      type: DT_INT64
    }
  }
  attr {
    key: "value"
    value {
      tensor {
        dtype: DT_INT64
        tensor_shape {
          dim {
            size: 627
          }
        }
        tensor_content: "…"
      }
    }
  }
}
node {
  name: "normalize_element/component_8"
  op: "Const"
  device: "/device:CPU:0"
  attr {
    key: "_output_shapes"
    value {
      list {
        shape {
          dim {
            size: 627
          }
        }
      }
    }
  }
  attr {
    key: "dtype"
    value {
      type: DT_STRING
    }
  }
  attr {
    key: "value"
    value {
      tensor {
        dtype: DT_STRING
        tensor_shape {
          dim {
            size: 627
          }
        }
        string_val: "male"
        string_val: "female"
        string_val: "female"
        string_val: "female"
        string_val: "male"
        string_val: "male"
        string_val: "female"
        string_val: "female"
        string_val: "female"
        string_val: "male"
        string_val: "male"
        string_val: "female"
        string_val: "male"
        string_val: "male"
        string_val: "female"
        string_val: "female"
        string_val: "male"
        string_val: "male"
        string_val: "female"
        string_val: "male"
        string_val: "male"
        string_val: "female"
        string_val: "male"
        string_val: "male"
        string_val: "female"
        string_val: "female"
        string_val: "male"
        string_val: "male"
        string_val: "male"
        string_val: "male"
        string_val: "female"
        string_val: "female"
        string_val: "female"
        string_val: "male"
        string_val: "female"
        string_val: "male"
        string_val: "male"
        string_val: "male"
        string_val: "female"
        string_val: "male"
        string_val: "female"
        string_val: "female"
        string_val: "male"
        string_val: "male"
        string_val: "female"
        string_val: "male"
        string_val: "male"
        string_val: "male"
        string_val: "female"
        string_val: "male"
        string_val: "male"
        string_val: "male"
        string_val: "male"
        string_val: "female"
        string_val: "male"
        string_val: "male"
        string_val: "male"
        string_val: "male"
        string_val: "male"
        string_val: "male"
        string_val: "male"
        string_val: "male"
        string_val: "female"
        string_val: "male"
        string_val: "male"
        string_val: "female"
        string_val: "male"
        string_val: "male"
        string_val: "male"
        string_val: "female"
        string_val: "male"
        string_val: "male"
        string_val: "male"
        string_val: "male"
        string_val: "male"
        string_val: "male"
        string_val: "female"
        string_val: "male"
        string_val: "female"
        string_val: "male"
        string_val: "male"
        string_val: "male"
        string_val: "male"
        string_val: "male"
        string_val: "male"
        string_val: "female"
        string_val: "male"
        string_val: "female"
        string_val: "male"
        string_val: "female"
        string_val: "male"
        string_val: "male"
        string_val: "male"
        string_val: "male"
        string_val: "male"
        string_val: "male"
        string_val: "female"
        string_val: "male"
        string_val: "male"
        string_val: "male"
        string_val: "male"
        string_val: "female"
        string_val: "male"
        string_val: "female"
        string_val: "male"
        string_val: "male"
        string_val: "male"
        string_val: "female"
        string_val: "female"
        string_val: "male"
        string_val: "male"
        string_val: "female"
        string_val: "male"
        string_val: "male"
        string_val: "male"
        string_val: "male"
        string_val: "male"
        string_val: "female"
        string_val: "male"
        string_val: "male"
        string_val: "male"
        string_val: "male"
        string_val: "male"
        string_val: "male"
        string_val: "female"
        string_val: "male"
        string_val: "male"
        string_val: "male"
        string_val: "male"
        string_val: "female"
        string_val: "male"
        string_val: "male"
        string_val: "female"
        string_val: "male"
        string_val: "male"
        string_val: "female"
        string_val: "female"
        string_val: "male"
        string_val: "male"
        string_val: "female"
        string_val: "female"
        string_val: "male"
        string_val: "female"
        string_val: "female"
        string_val: "male"
        string_val: "female"
        string_val: "female"
        string_val: "male"
        string_val: "male"
        string_val: "male"
        string_val: "female"
        string_val: "male"
        string_val: "male"
        string_val: "female"
        string_val: "male"
        string_val: "female"
        string_val: "male"
        string_val: "male"
        string_val: "female"
        string_val: "female"
        string_val: "male"
        string_val: "male"
        string_val: "male"
        string_val: "male"
        string_val: "male"
        string_val: "male"
        string_val: "male"
        string_val: "male"
        string_val: "female"
        string_val: "female"
        string_val: "male"
        string_val: "male"
        string_val: "female"
        string_val: "male"
        string_val: "male"
        string_val: "male"
        string_val: "female"
        string_val: "female"
        string_val: "male"
        string_val: "male"
        string_val: "male"
        string_val: "female"
        string_val: "male"
        string_val: "female"
        string_val: "male"
        string_val: "female"
        string_val: "female"
        string_val: "female"
        string_val: "female"
        string_val: "male"
        string_val: "male"
        string_val: "male"
        string_val: "female"
        string_val: "male"
        string_val: "male"
        string_val: "male"
        string_val: "female"
        string_val: "female"
        string_val: "male"
        string_val: "male"
        string_val: "female"
        string_val: "male"
        string_val: "female"
        string_val: "female"
        string_val: "female"
        string_val: "male"
        string_val: "male"
        string_val: "female"
        string_val: "male"
        string_val: "male"
        string_val: "male"
        string_val: "female"
        string_val: "male"
        string_val: "male"
        string_val: "male"
        string_val: "female"
        string_val: "female"
        string_val: "male"
        string_val: "female"
        string_val: "male"
        string_val: "female"
        string_val: "female"
        string_val: "male"
        string_val: "female"
        string_val: "female"
        string_val: "female"
        string_val: "female"
        string_val: "male"
        string_val: "male"
        string_val: "female"
        string_val: "female"
        string_val: "female"
        string_val: "male"
        string_val: "male"
        string_val: "female"
        string_val: "male"
        string_val: "female"
        string_val: "male"
        string_val: "female"
        string_val: "female"
        string_val: "male"
        string_val: "female"
        string_val: "male"
        string_val: "male"
        string_val: "male"
        string_val: "male"
        string_val: "male"
        string_val: "male"
        string_val: "male"
        string_val: "female"
        string_val: "female"
        string_val: "female"
        string_val: "male"
        string_val: "male"
        string_val: "male"
        string_val: "male"
        string_val: "female"
        string_val: "female"
        string_val: "female"
        string_val: "female"
        string_val: "male"
        string_val: "male"
        string_val: "female"
        string_val: "male"
        string_val: "male"
        string_val: "female"
        string_val: "female"
        string_val: "female"
        string_val: "female"
        string_val: "male"
        string_val: "male"
        string_val: "female"
        string_val: "male"
        string_val: "male"
        string_val: "female"
        string_val: "male"
        string_val: "male"
        string_val: "male"
        string_val: "male"
        string_val: "male"
        string_val: "female"
        string_val: "male"
        string_val: "male"
        string_val: "female"
        string_val: "female"
        string_val: "male"
        string_val: "female"
        string_val: "male"
        string_val: "male"
        string_val: "male"
        string_val: "male"
        string_val: "male"
        string_val: "male"
        string_val: "male"
        string_val: "male"
        string_val: "female"
        string_val: "male"
        string_val: "male"
        string_val: "male"
        string_val: "male"
        string_val: "female"
        string_val: "female"
        string_val: "female"
        string_val: "male"
        string_val: "male"
        string_val: "male"
        string_val: "male"
        string_val: "female"
        string_val: "male"
        string_val: "male"
        string_val: "male"
        string_val: "female"
        string_val: "female"
        string_val: "male"
        string_val: "male"
        string_val: "female"
        string_val: "female"
        string_val: "male"
        string_val: "male"
        string_val: "female"
        string_val: "male"
        string_val: "female"
        string_val: "male"
        string_val: "male"
        string_val: "female"
        string_val: "male"
        string_val: "male"
        string_val: "male"
        string_val: "male"
        string_val: "male"
        string_val: "male"
        string_val: "female"
        string_val: "male"
        string_val: "male"
        string_val: "male"
        string_val: "male"
        string_val: "male"
        string_val: "male"
        string_val: "male"
        string_val: "female"
        string_val: "male"
        string_val: "female"
        string_val: "female"
        string_val: "male"
        string_val: "male"
        string_val: "male"
        string_val: "female"
        string_val: "male"
        string_val: "male"
        string_val: "female"
        string_val: "male"
        string_val: "female"
        string_val: "female"
        string_val: "male"
        string_val: "male"
        string_val: "male"
        string_val: "male"
        string_val: "male"
        string_val: "female"
        string_val: "male"
        string_val: "female"
        string_val: "female"
        string_val: "male"
        string_val: "female"
        string_val: "male"
        string_val: "male"
        string_val: "female"
        string_val: "male"
        string_val: "male"
        string_val: "female"
        string_val: "female"
        string_val: "male"
        string_val: "female"
        string_val: "male"
        string_val: "female"
        string_val: "male"
        string_val: "male"
        string_val: "female"
        string_val: "male"
        string_val: "male"
        string_val: "female"
        string_val: "male"
        string_val: "female"
        string_val: "female"
        string_val: "female"
        string_val: "male"
        string_val: "female"
        string_val: "female"
        string_val: "female"
        string_val: "female"
        string_val: "female"
        string_val: "male"
        string_val: "female"
        string_val: "male"
        string_val: "male"
        string_val: "male"
        string_val: "male"
        string_val: "male"
        string_val: "female"
        string_val: "female"
        string_val: "male"
        string_val: "female"
        string_val: "female"
        string_val: "male"
        string_val: "male"
        string_val: "male"
        string_val: "male"
        string_val: "male"
        string_val: "female"
        string_val: "male"
        string_val: "male"
        string_val: "female"
        string_val: "male"
        string_val: "male"
        string_val: "female"
        string_val: "female"
        string_val: "male"
        string_val: "male"
        string_val: "male"
        string_val: "male"
        string_val: "male"
        string_val: "female"
        string_val: "male"
        string_val: "female"
        string_val: "male"
        string_val: "male"
        string_val: "female"
        string_val: "male"
        string_val: "male"
        string_val: "male"
        string_val: "male"
        string_val: "male"
        string_val: "male"
        string_val: "male"
        string_val: "female"
        string_val: "female"
        string_val: "female"
        string_val: "male"
        string_val: "female"
        string_val: "male"
        string_val: "female"
        string_val: "male"
        string_val: "male"
        string_val: "male"
        string_val: "male"
        string_val: "male"
        string_val: "female"
        string_val: "male"
        string_val: "male"
        string_val: "male"
        string_val: "male"
        string_val: "male"
        string_val: "female"
        string_val: "female"
        string_val: "male"
        string_val: "female"
        string_val: "male"
        string_val: "male"
        string_val: "male"
        string_val: "female"
        string_val: "male"
        string_val: "male"
        string_val: "female"
        string_val: "male"
        string_val: "female"
        string_val: "male"
        string_val: "male"
        string_val: "male"
        string_val: "female"
        string_val: "male"
        string_val: "male"
        string_val: "male"
        string_val: "male"
        string_val: "male"
        string_val: "male"
        string_val: "male"
        string_val: "female"
        string_val: "male"
        string_val: "male"
        string_val: "male"
        string_val: "male"
        string_val: "female"
        string_val: "male"
        string_val: "male"
        string_val: "male"
        string_val: "male"
        string_val: "male"
        string_val: "male"
        string_val: "male"
        string_val: "female"
        string_val: "male"
        string_val: "female"
        string_val: "male"
        string_val: "male"
        string_val: "female"
        string_val: "male"
        string_val: "male"
        string_val: "male"
        string_val: "male"
        string_val: "female"
        string_val: "male"
        string_val: "female"
        string_val: "male"
        string_val: "male"
        string_val: "male"
        string_val: "male"
        string_val: "female"
        string_val: "female"
        string_val: "male"
        string_val: "male"
        string_val: "female"
        string_val: "male"
        string_val: "male"
        string_val: "female"
        string_val: "male"
        string_val: "female"
        string_val: "female"
        string_val: "male"
        string_val: "male"
        string_val: "male"
        string_val: "male"
        string_val: "male"
        string_val: "male"
        string_val: "male"
        string_val: "male"
        string_val: "female"
        string_val: "male"
        string_val: "male"
        string_val: "female"
        string_val: "male"
        string_val: "male"
        string_val: "male"
        string_val: "female"
        string_val: "male"
        string_val: "male"
        string_val: "male"
        string_val: "male"
        string_val: "male"
        string_val: "female"
        string_val: "male"
        string_val: "male"
        string_val: "male"
        string_val: "male"
        string_val: "female"
        string_val: "male"
        string_val: "male"
        string_val: "female"
        string_val: "female"
        string_val: "male"
        string_val: "male"
        string_val: "male"
        string_val: "male"
        string_val: "male"
        string_val: "male"
        string_val: "male"
        string_val: "female"
        string_val: "male"
        string_val: "male"
        string_val: "male"
        string_val: "female"
        string_val: "female"
        string_val: "male"
        string_val: "female"
        string_val: "male"
        string_val: "female"
        string_val: "male"
        string_val: "male"
        string_val: "male"
        string_val: "male"
        string_val: "female"
        string_val: "male"
        string_val: "male"
        string_val: "male"
        string_val: "male"
        string_val: "male"
        string_val: "female"
        string_val: "male"
        string_val: "male"
        string_val: "female"
        string_val: "male"
        string_val: "male"
        string_val: "male"
        string_val: "male"
        string_val: "male"
        string_val: "female"
        string_val: "male"
        string_val: "male"
        string_val: "male"
        string_val: "female"
        string_val: "male"
        string_val: "male"
        string_val: "male"
        string_val: "male"
        string_val: "female"
        string_val: "male"
        string_val: "male"
        string_val: "male"
        string_val: "male"
        string_val: "male"
        string_val: "female"
        string_val: "male"
        string_val: "female"
        string_val: "female"
        string_val: "female"
        string_val: "male"
        string_val: "female"
        string_val: "male"
        string_val: "male"
        string_val: "female"
        string_val: "female"
        string_val: "male"
        string_val: "male"
        string_val: "male"
        string_val: "female"
        string_val: "male"
        string_val: "male"
        string_val: "female"
        string_val: "female"
        string_val: "male"
        string_val: "male"
        string_val: "male"
        string_val: "female"
        string_val: "male"
        string_val: "male"
        string_val: "female"
        string_val: "female"
        string_val: "male"
      }
    }
  }
}
node {
  name: "normalize_element/component_9"
  op: "Const"
  device: "/device:CPU:0"
  attr {
    key: "_output_shapes"
    value {
      list {
        shape {
          dim {
            size: 627
          }
        }
      }
    }
  }
  attr {
    key: "dtype"
    value {
      type: DT_INT64
    }
  }
  attr {
    key: "value"
    value {
      tensor {
        dtype: DT_INT64
        tensor_shape {
          dim {
            size: 627
          }
        }
        tensor_content: "…"
      }
    }
  }
}
node {
  name: "TensorSliceDataset"
  op: "TensorSliceDataset"
  input: "normalize_element/component_0"
  input: "normalize_element/component_1"
  input: "normalize_element/component_2"
  input: "normalize_element/component_3"
  input: "normalize_element/component_4"
  input: "normalize_element/component_5"
  input: "normalize_element/component_6"
  input: "normalize_element/component_7"
  input: "normalize_element/component_8"
  input: "normalize_element/component_9"
  device: "/device:CPU:0"
  attr {
    key: "Toutput_types"
    value {
      list {
        type: DT_DOUBLE
        type: DT_STRING
        type: DT_STRING
        type: DT_STRING
        type: DT_STRING
        type: DT_DOUBLE
        type: DT_INT64
        type: DT_INT64
        type: DT_STRING
        type: DT_INT64
      }
    }
  }
  attr {
    key: "_output_shapes"
    value {
      list {
        shape {
        }
      }
    }
  }
  attr {
    key: "output_shapes"
    value {
      list {
        shape {
        }
        shape {
        }
        shape {
        }
        shape {
        }
        shape {
        }
        shape {
        }
        shape {
        }
        shape {
        }
        shape {
        }
        shape {
        }
      }
    }
  }
}
node {
  name: "buffer_size"
  op: "Const"
  device: "/device:CPU:0"
  attr {
    key: "_output_shapes"
    value {
      list {
        shape {
        }
      }
    }
  }
  attr {
    key: "dtype"
    value {
      type: DT_INT64
    }
  }
  attr {
    key: "value"
    value {
      tensor {
        dtype: DT_INT64
        tensor_shape {
        }
        int64_val: 10000
      }
    }
  }
}
node {
  name: "seed"
  op: "Const"
  device: "/device:CPU:0"
  attr {
    key: "_output_shapes"
    value {
      list {
        shape {
        }
      }
    }
  }
  attr {
    key: "dtype"
    value {
      type: DT_INT64
    }
  }
  attr {
    key: "value"
    value {
      tensor {
        dtype: DT_INT64
        tensor_shape {
        }
        int64_val: 0
      }
    }
  }
}
node {
  name: "seed2"
  op: "Const"
  device: "/device:CPU:0"
  attr {
    key: "_output_shapes"
    value {
      list {
        shape {
        }
      }
    }
  }
  attr {
    key: "dtype"
    value {
      type: DT_INT64
    }
  }
  attr {
    key: "value"
    value {
      tensor {
        dtype: DT_INT64
        tensor_shape {
        }
        int64_val: 0
      }
    }
  }
}
node {
  name: "ShuffleDataset"
  op: "ShuffleDataset"
  input: "TensorSliceDataset"
  input: "buffer_size"
  input: "seed"
  input: "seed2"
  device: "/device:CPU:0"
  attr {
    key: "_output_shapes"
    value {
      list {
        shape {
        }
      }
    }
  }
  attr {
    key: "output_shapes"
    value {
      list {
        shape {
        }
        shape {
        }
        shape {
        }
        shape {
        }
        shape {
        }
        shape {
        }
        shape {
        }
        shape {
        }
        shape {
        }
        shape {
        }
      }
    }
  }
  attr {
    key: "output_types"
    value {
      list {
        type: DT_DOUBLE
        type: DT_STRING
        type: DT_STRING
        type: DT_STRING
        type: DT_STRING
        type: DT_DOUBLE
        type: DT_INT64
        type: DT_INT64
        type: DT_STRING
        type: DT_INT64
      }
    }
  }
  attr {
    key: "reshuffle_each_iteration"
    value {
      b: true
    }
  }
}
node {
  name: "count"
  op: "Const"
  device: "/device:CPU:0"
  attr {
    key: "_output_shapes"
    value {
      list {
        shape {
        }
      }
    }
  }
  attr {
    key: "dtype"
    value {
      type: DT_INT64
    }
  }
  attr {
    key: "value"
    value {
      tensor {
        dtype: DT_INT64
        tensor_shape {
        }
        int64_val: 100
      }
    }
  }
}
node {
  name: "RepeatDataset"
  op: "RepeatDataset"
  input: "ShuffleDataset"
  input: "count"
  device: "/device:CPU:0"
  attr {
    key: "_output_shapes"
    value {
      list {
        shape {
        }
      }
    }
  }
  attr {
    key: "output_shapes"
    value {
      list {
        shape {
        }
        shape {
        }
        shape {
        }
        shape {
        }
        shape {
        }
        shape {
        }
        shape {
        }
        shape {
        }
        shape {
        }
        shape {
        }
      }
    }
  }
  attr {
    key: "output_types"
    value {
      list {
        type: DT_DOUBLE
        type: DT_STRING
        type: DT_STRING
        type: DT_STRING
        type: DT_STRING
        type: DT_DOUBLE
        type: DT_INT64
        type: DT_INT64
        type: DT_STRING
        type: DT_INT64
      }
    }
  }
}
node {
  name: "batch_size"
  op: "Const"
  device: "/device:CPU:0"
  attr {
    key: "_output_shapes"
    value {
      list {
        shape {
        }
      }
    }
  }
  attr {
    key: "dtype"
    value {
      type: DT_INT64
    }
  }
  attr {
    key: "value"
    value {
      tensor {
        dtype: DT_INT64
        tensor_shape {
        }
        int64_val: 32
      }
    }
  }
}
node {
  name: "drop_remainder"
  op: "Const"
  device: "/device:CPU:0"
  attr {
    key: "_output_shapes"
    value {
      list {
        shape {
        }
      }
    }
  }
  attr {
    key: "dtype"
    value {
      type: DT_BOOL
    }
  }
  attr {
    key: "value"
    value {
      tensor {
        dtype: DT_BOOL
        tensor_shape {
        }
        bool_val: false
      }
    }
  }
}
node {
  name: "BatchDatasetV2"
  op: "BatchDatasetV2"
  input: "RepeatDataset"
  input: "batch_size"
  input: "drop_remainder"
  device: "/device:CPU:0"
  attr {
    key: "_output_shapes"
    value {
      list {
        shape {
        }
      }
    }
  }
  attr {
    key: "output_shapes"
    value {
      list {
        shape {
          dim {
            size: -1
          }
        }
        shape {
          dim {
            size: -1
          }
        }
        shape {
          dim {
            size: -1
          }
        }
        shape {
          dim {
            size: -1
          }
        }
        shape {
          dim {
            size: -1
          }
        }
        shape {
          dim {
            size: -1
          }
        }
        shape {
          dim {
            size: -1
          }
        }
        shape {
          dim {
            size: -1
          }
        }
        shape {
          dim {
            size: -1
          }
        }
        shape {
          dim {
            size: -1
          }
        }
      }
    }
  }
  attr {
    key: "output_types"
    value {
      list {
        type: DT_DOUBLE
        type: DT_STRING
        type: DT_STRING
        type: DT_STRING
        type: DT_STRING
        type: DT_DOUBLE
        type: DT_INT64
        type: DT_INT64
        type: DT_STRING
        type: DT_INT64
      }
    }
  }
  attr {
    key: "parallel_copy"
    value {
      b: false
    }
  }
}
node {
  name: "optimizations"
  op: "Const"
  attr {
    key: "_output_shapes"
    value {
      list {
        shape {
          dim {
            size: 3
          }
        }
      }
    }
  }
  attr {
    key: "dtype"
    value {
      type: DT_STRING
    }
  }
  attr {
    key: "value"
    value {
      tensor {
        dtype: DT_STRING
        tensor_shape {
          dim {
            size: 3
          }
        }
        string_val: "map_and_batch_fusion"
        string_val: "noop_elimination"
        string_val: "shuffle_and_repeat_fusion"
      }
    }
  }
}
node {
  name: "OptimizeDataset"
  op: "OptimizeDataset"
  input: "BatchDatasetV2"
  input: "optimizations"
  attr {
    key: "_output_shapes"
    value {
      list {
        shape {
        }
      }
    }
  }
  attr {
    key: "optimization_configs"
    value {
      list {
        s: "map_vectorization:use_choose_fastest:false"
      }
    }
  }
  attr {
    key: "output_shapes"
    value {
      list {
        shape {
          dim {
            size: -1
          }
        }
        shape {
          dim {
            size: -1
          }
        }
        shape {
          dim {
            size: -1
          }
        }
        shape {
          dim {
            size: -1
          }
        }
        shape {
          dim {
            size: -1
          }
        }
        shape {
          dim {
            size: -1
          }
        }
        shape {
          dim {
            size: -1
          }
        }
        shape {
          dim {
            size: -1
          }
        }
        shape {
          dim {
            size: -1
          }
        }
        shape {
          dim {
            size: -1
          }
        }
      }
    }
  }
  attr {
    key: "output_types"
    value {
      list {
        type: DT_DOUBLE
        type: DT_STRING
        type: DT_STRING
        type: DT_STRING
        type: DT_STRING
        type: DT_DOUBLE
        type: DT_INT64
        type: DT_INT64
        type: DT_STRING
        type: DT_INT64
      }
    }
  }
}
node {
  name: "ModelDataset"
  op: "ModelDataset"
  input: "OptimizeDataset"
  attr {
    key: "_output_shapes"
    value {
      list {
        shape {
        }
      }
    }
  }
  attr {
    key: "algorithm"
    value {
      i: 0
    }
  }
  attr {
    key: "cpu_budget"
    value {
      i: 0
    }
  }
  attr {
    key: "output_shapes"
    value {
      list {
        shape {
          dim {
            size: -1
          }
        }
        shape {
          dim {
            size: -1
          }
        }
        shape {
          dim {
            size: -1
          }
        }
        shape {
          dim {
            size: -1
          }
        }
        shape {
          dim {
            size: -1
          }
        }
        shape {
          dim {
            size: -1
          }
        }
        shape {
          dim {
            size: -1
          }
        }
        shape {
          dim {
            size: -1
          }
        }
        shape {
          dim {
            size: -1
          }
        }
        shape {
          dim {
            size: -1
          }
        }
      }
    }
  }
  attr {
    key: "output_types"
    value {
      list {
        type: DT_DOUBLE
        type: DT_STRING
        type: DT_STRING
        type: DT_STRING
        type: DT_STRING
        type: DT_DOUBLE
        type: DT_INT64
        type: DT_INT64
        type: DT_STRING
        type: DT_INT64
      }
    }
  }
}
node {
  name: "IteratorV2"
  op: "IteratorV2"
  attr {
    key: "_output_shapes"
    value {
      list {
        shape {
        }
      }
    }
  }
  attr {
    key: "container"
    value {
      s: ""
    }
  }
  attr {
    key: "output_shapes"
    value {
      list {
        shape {
          dim {
            size: -1
          }
        }
        shape {
          dim {
            size: -1
          }
        }
        shape {
          dim {
            size: -1
          }
        }
        shape {
          dim {
            size: -1
          }
        }
        shape {
          dim {
            size: -1
          }
        }
        shape {
          dim {
            size: -1
          }
        }
        shape {
          dim {
            size: -1
          }
        }
        shape {
          dim {
            size: -1
          }
        }
        shape {
          dim {
            size: -1
          }
        }
        shape {
          dim {
            size: -1
          }
        }
      }
    }
  }
  attr {
    key: "output_types"
    value {
      list {
        type: DT_DOUBLE
        type: DT_STRING
        type: DT_STRING
        type: DT_STRING
        type: DT_STRING
        type: DT_DOUBLE
        type: DT_INT64
        type: DT_INT64
        type: DT_STRING
        type: DT_INT64
      }
    }
  }
  attr {
    key: "shared_name"
    value {
      s: ""
    }
  }
}
node {
  name: "MakeIterator"
  op: "MakeIterator"
  input: "ModelDataset"
  input: "IteratorV2"
  attr {
    key: "_class"
    value {
      list {
        s: "loc:@IteratorV2"
      }
    }
  }
}
node {
  name: "IteratorToStringHandle"
  op: "IteratorToStringHandle"
  input: "IteratorV2"
  attr {
    key: "_output_shapes"
    value {
      list {
        shape {
        }
      }
    }
  }
}
node {
  name: "IteratorGetNext"
  op: "IteratorGetNext"
  input: "IteratorV2"
  attr {
    key: "_output_shapes"
    value {
      list {
        shape {
          dim {
            size: -1
          }
        }
        shape {
          dim {
            size: -1
          }
        }
        shape {
          dim {
            size: -1
          }
        }
        shape {
          dim {
            size: -1
          }
        }
        shape {
          dim {
            size: -1
          }
        }
        shape {
          dim {
            size: -1
          }
        }
        shape {
          dim {
            size: -1
          }
        }
        shape {
          dim {
            size: -1
          }
        }
        shape {
          dim {
            size: -1
          }
        }
        shape {
          dim {
            size: -1
          }
        }
      }
    }
  }
  attr {
    key: "output_shapes"
    value {
      list {
        shape {
          dim {
            size: -1
          }
        }
        shape {
          dim {
            size: -1
          }
        }
        shape {
          dim {
            size: -1
          }
        }
        shape {
          dim {
            size: -1
          }
        }
        shape {
          dim {
            size: -1
          }
        }
        shape {
          dim {
            size: -1
          }
        }
        shape {
          dim {
            size: -1
          }
        }
        shape {
          dim {
            size: -1
          }
        }
        shape {
          dim {
            size: -1
          }
        }
        shape {
          dim {
            size: -1
          }
        }
      }
    }
  }
  attr {
    key: "output_types"
    value {
      list {
        type: DT_DOUBLE
        type: DT_STRING
        type: DT_STRING
        type: DT_STRING
        type: DT_STRING
        type: DT_DOUBLE
        type: DT_INT64
        type: DT_INT64
        type: DT_STRING
        type: DT_INT64
      }
    }
  }
}
node {
  name: "dnn/Cast"
  op: "Cast"
  input: "IteratorGetNext"
  attr {
    key: "DstT"
    value {
      type: DT_FLOAT
    }
  }
  attr {
    key: "SrcT"
    value {
      type: DT_DOUBLE
    }
  }
  attr {
    key: "Truncate"
    value {
      b: false
    }
  }
  attr {
    key: "_output_shapes"
    value {
      list {
        shape {
          dim {
            size: -1
          }
        }
      }
    }
  }
}
node {
  name: "dnn/Cast_1"
  op: "Cast"
  input: "IteratorGetNext:5"
  attr {
    key: "DstT"
    value {
      type: DT_FLOAT
    }
  }
  attr {
    key: "SrcT"
    value {
      type: DT_DOUBLE
    }
  }
  attr {
    key: "Truncate"
    value {
      b: false
    }
  }
  attr {
    key: "_output_shapes"
    value {
      list {
        shape {
          dim {
            size: -1
          }
        }
      }
    }
  }
}
node {
  name: "dnn/input_from_feature_columns/input_layer/age_1/ExpandDims/dim"
  op: "Const"
  attr {
    key: "_output_shapes"
    value {
      list {
        shape {
        }
      }
    }
  }
  attr {
    key: "dtype"
    value {
      type: DT_INT32
    }
  }
  attr {
    key: "value"
    value {
      tensor {
        dtype: DT_INT32
        tensor_shape {
        }
        int_val: -1
      }
    }
  }
}
node {
  name: "dnn/input_from_feature_columns/input_layer/age_1/ExpandDims"
  op: "ExpandDims"
  input: "dnn/Cast"
  input: "dnn/input_from_feature_columns/input_layer/age_1/ExpandDims/dim"
  attr {
    key: "T"
    value {
      type: DT_FLOAT
    }
  }
  attr {
    key: "Tdim"
    value {
      type: DT_INT32
    }
  }
  attr {
    key: "_output_shapes"
    value {
      list {
        shape {
          dim {
            size: -1
          }
          dim {
            size: 1
          }
        }
      }
    }
  }
}
node {
  name: "dnn/input_from_feature_columns/input_layer/age_1/Shape"
  op: "Shape"
  input: "dnn/input_from_feature_columns/input_layer/age_1/ExpandDims"
  attr {
    key: "T"
    value {
      type: DT_FLOAT
    }
  }
  attr {
    key: "_output_shapes"
    value {
      list {
        shape {
          dim {
            size: 2
          }
        }
      }
    }
  }
  attr {
    key: "out_type"
    value {
      type: DT_INT32
    }
  }
}
node {
  name: "dnn/input_from_feature_columns/input_layer/age_1/strided_slice/stack"
  op: "Const"
  attr {
    key: "_output_shapes"
    value {
      list {
        shape {
          dim {
            size: 1
          }
        }
      }
    }
  }
  attr {
    key: "dtype"
    value {
      type: DT_INT32
    }
  }
  attr {
    key: "value"
    value {
      tensor {
        dtype: DT_INT32
        tensor_shape {
          dim {
            size: 1
          }
        }
        int_val: 0
      }
    }
  }
}
node {
  name: "dnn/input_from_feature_columns/input_layer/age_1/strided_slice/stack_1"
  op: "Const"
  attr {
    key: "_output_shapes"
    value {
      list {
        shape {
          dim {
            size: 1
          }
        }
      }
    }
  }
  attr {
    key: "dtype"
    value {
      type: DT_INT32
    }
  }
  attr {
    key: "value"
    value {
      tensor {
        dtype: DT_INT32
        tensor_shape {
          dim {
            size: 1
          }
        }
        int_val: 1
      }
    }
  }
}
node {
  name: "dnn/input_from_feature_columns/input_layer/age_1/strided_slice/stack_2"
  op: "Const"
  attr {
    key: "_output_shapes"
    value {
      list {
        shape {
          dim {
            size: 1
          }
        }
      }
    }
  }
  attr {
    key: "dtype"
    value {
      type: DT_INT32
    }
  }
  attr {
    key: "value"
    value {
      tensor {
        dtype: DT_INT32
        tensor_shape {
          dim {
            size: 1
          }
        }
        int_val: 1
      }
    }
  }
}
node {
  name: "dnn/input_from_feature_columns/input_layer/age_1/strided_slice"
  op: "StridedSlice"
  input: "dnn/input_from_feature_columns/input_layer/age_1/Shape"
  input: "dnn/input_from_feature_columns/input_layer/age_1/strided_slice/stack"
  input: "dnn/input_from_feature_columns/input_layer/age_1/strided_slice/stack_1"
  input: "dnn/input_from_feature_columns/input_layer/age_1/strided_slice/stack_2"
  attr {
    key: "Index"
    value {
      type: DT_INT32
    }
  }
  attr {
    key: "T"
    value {
      type: DT_INT32
    }
  }
  attr {
    key: "_output_shapes"
    value {
      list {
        shape {
        }
      }
    }
  }
  attr {
    key: "begin_mask"
    value {
      i: 0
    }
  }
  attr {
    key: "ellipsis_mask"
    value {
      i: 0
    }
  }
  attr {
    key: "end_mask"
    value {
      i: 0
    }
  }
  attr {
    key: "new_axis_mask"
    value {
      i: 0
    }
  }
  attr {
    key: "shrink_axis_mask"
    value {
      i: 1
    }
  }
}
node {
  name: "dnn/input_from_feature_columns/input_layer/age_1/Reshape/shape/1"
  op: "Const"
  attr {
    key: "_output_shapes"
    value {
      list {
        shape {
        }
      }
    }
  }
  attr {
    key: "dtype"
    value {
      type: DT_INT32
    }
  }
  attr {
    key: "value"
    value {
      tensor {
        dtype: DT_INT32
        tensor_shape {
        }
        int_val: 1
      }
    }
  }
}
node {
  name: "dnn/input_from_feature_columns/input_layer/age_1/Reshape/shape"
  op: "Pack"
  input: "dnn/input_from_feature_columns/input_layer/age_1/strided_slice"
  input: "dnn/input_from_feature_columns/input_layer/age_1/Reshape/shape/1"
  attr {
    key: "N"
    value {
      i: 2
    }
  }
  attr {
    key: "T"
    value {
      type: DT_INT32
    }
  }
  attr {
    key: "_output_shapes"
    value {
      list {
        shape {
          dim {
            size: 2
          }
        }
      }
    }
  }
  attr {
    key: "axis"
    value {
      i: 0
    }
  }
}
node {
  name: "dnn/input_from_feature_columns/input_layer/age_1/Reshape"
  op: "Reshape"
  input: "dnn/input_from_feature_columns/input_layer/age_1/ExpandDims"
  input: "dnn/input_from_feature_columns/input_layer/age_1/Reshape/shape"
  attr {
    key: "T"
    value {
      type: DT_FLOAT
    }
  }
  attr {
    key: "Tshape"
    value {
      type: DT_INT32
    }
  }
  attr {
    key: "_output_shapes"
    value {
      list {
        shape {
          dim {
            size: -1
          }
          dim {
            size: 1
          }
        }
      }
    }
  }
}
node {
  name: "dnn/input_from_feature_columns/input_layer/age_X_sex_indicator_1/ExpandDims/dim"
  op: "Const"
  attr {
    key: "_output_shapes"
    value {
      list {
        shape {
        }
      }
    }
  }
  attr {
    key: "dtype"
    value {
      type: DT_INT32
    }
  }
  attr {
    key: "value"
    value {
      tensor {
        dtype: DT_INT32
        tensor_shape {
        }
        int_val: -1
      }
    }
  }
}
node {
  name: "dnn/input_from_feature_columns/input_layer/age_X_sex_indicator_1/ExpandDims"
  op: "ExpandDims"
  input: "IteratorGetNext:8"
  input: "dnn/input_from_feature_columns/input_layer/age_X_sex_indicator_1/ExpandDims/dim"
  attr {
    key: "T"
    value {
      type: DT_STRING
    }
  }
  attr {
    key: "Tdim"
    value {
      type: DT_INT32
    }
  }
  attr {
    key: "_output_shapes"
    value {
      list {
        shape {
          dim {
            size: -1
          }
          dim {
            size: 1
          }
        }
      }
    }
  }
}
node {
  name: "dnn/input_from_feature_columns/input_layer/age_X_sex_indicator_1/Cast"
  op: "Cast"
  input: "dnn/input_from_feature_columns/input_layer/age_1/ExpandDims"
  attr {
    key: "DstT"
    value {
      type: DT_INT64
    }
  }
  attr {
    key: "SrcT"
    value {
      type: DT_FLOAT
    }
  }
  attr {
    key: "Truncate"
    value {
      b: false
    }
  }
  attr {
    key: "_output_shapes"
    value {
      list {
        shape {
          dim {
            size: -1
          }
          dim {
            size: 1
          }
        }
      }
    }
  }
}
node {
  name: "dnn/input_from_feature_columns/input_layer/age_X_sex_indicator_1/SparseCross"
  op: "SparseCross"
  input: "dnn/input_from_feature_columns/input_layer/age_X_sex_indicator_1/Cast"
  input: "dnn/input_from_feature_columns/input_layer/age_X_sex_indicator_1/ExpandDims"
  attr {
    key: "N"
    value {
      i: 0
    }
  }
  attr {
    key: "_output_shapes"
    value {
      list {
        shape {
          dim {
            size: -1
          }
          dim {
            size: 2
          }
        }
        shape {
          dim {
            size: -1
          }
        }
        shape {
          dim {
            size: 2
          }
        }
      }
    }
  }
  attr {
    key: "dense_types"
    value {
      list {
        type: DT_INT64
        type: DT_STRING
      }
    }
  }
  attr {
    key: "hash_key"
    value {
      i: 956888297470
    }
  }
  attr {
    key: "hashed_output"
    value {
      b: true
    }
  }
  attr {
    key: "internal_type"
    value {
      type: DT_INT64
    }
  }
  attr {
    key: "num_buckets"
    value {
      i: 100
    }
  }
  attr {
    key: "out_type"
    value {
      type: DT_INT64
    }
  }
  attr {
    key: "sparse_types"
    value {
      list {
      }
    }
  }
}
node {
  name: "dnn/input_from_feature_columns/input_layer/age_X_sex_indicator_1/SparseToDense/default_value"
  op: "Const"
  attr {
    key: "_output_shapes"
    value {
      list {
        shape {
        }
      }
    }
  }
  attr {
    key: "dtype"
    value {
      type: DT_INT64
    }
  }
  attr {
    key: "value"
    value {
      tensor {
        dtype: DT_INT64
        tensor_shape {
        }
        int64_val: -1
      }
    }
  }
}
node {
  name: "dnn/input_from_feature_columns/input_layer/age_X_sex_indicator_1/SparseToDense"
  op: "SparseToDense"
  input: "dnn/input_from_feature_columns/input_layer/age_X_sex_indicator_1/SparseCross"
  input: "dnn/input_from_feature_columns/input_layer/age_X_sex_indicator_1/SparseCross:2"
  input: "dnn/input_from_feature_columns/input_layer/age_X_sex_indicator_1/SparseCross:1"
  input: "dnn/input_from_feature_columns/input_layer/age_X_sex_indicator_1/SparseToDense/default_value"
  attr {
    key: "T"
    value {
      type: DT_INT64
    }
  }
  attr {
    key: "Tindices"
    value {
      type: DT_INT64
    }
  }
  attr {
    key: "_output_shapes"
    value {
      list {
        shape {
          dim {
            size: -1
          }
          dim {
            size: -1
          }
        }
      }
    }
  }
  attr {
    key: "validate_indices"
    value {
      b: true
    }
  }
}
node {
  name: "dnn/input_from_feature_columns/input_layer/age_X_sex_indicator_1/one_hot/Const"
  op: "Const"
  attr {
    key: "_output_shapes"
    value {
      list {
        shape {
        }
      }
    }
  }
  attr {
    key: "dtype"
    value {
      type: DT_FLOAT
    }
  }
  attr {
    key: "value"
    value {
      tensor {
        dtype: DT_FLOAT
        tensor_shape {
        }
        float_val: 1.0
      }
    }
  }
}
node {
  name: "dnn/input_from_feature_columns/input_layer/age_X_sex_indicator_1/one_hot/Const_1"
  op: "Const"
  attr {
    key: "_output_shapes"
    value {
      list {
        shape {
        }
      }
    }
  }
  attr {
    key: "dtype"
    value {
      type: DT_FLOAT
    }
  }
  attr {
    key: "value"
    value {
      tensor {
        dtype: DT_FLOAT
        tensor_shape {
        }
        float_val: 0.0
      }
    }
  }
}
node {
  name: "dnn/input_from_feature_columns/input_layer/age_X_sex_indicator_1/one_hot/depth"
  op: "Const"
  attr {
    key: "_output_shapes"
    value {
      list {
        shape {
        }
      }
    }
  }
  attr {
    key: "dtype"
    value {
      type: DT_INT32
    }
  }
  attr {
    key: "value"
    value {
      tensor {
        dtype: DT_INT32
        tensor_shape {
        }
        int_val: 100
      }
    }
  }
}
node {
  name: "dnn/input_from_feature_columns/input_layer/age_X_sex_indicator_1/one_hot/on_value"
  op: "Const"
  attr {
    key: "_output_shapes"
    value {
      list {
        shape {
        }
      }
    }
  }
  attr {
    key: "dtype"
    value {
      type: DT_FLOAT
    }
  }
  attr {
    key: "value"
    value {
      tensor {
        dtype: DT_FLOAT
        tensor_shape {
        }
        float_val: 1.0
      }
    }
  }
}
node {
  name: "dnn/input_from_feature_columns/input_layer/age_X_sex_indicator_1/one_hot/off_value"
  op: "Const"
  attr {
    key: "_output_shapes"
    value {
      list {
        shape {
        }
      }
    }
  }
  attr {
    key: "dtype"
    value {
      type: DT_FLOAT
    }
  }
  attr {
    key: "value"
    value {
      tensor {
        dtype: DT_FLOAT
        tensor_shape {
        }
        float_val: 0.0
      }
    }
  }
}
node {
  name: "dnn/input_from_feature_columns/input_layer/age_X_sex_indicator_1/one_hot"
  op: "OneHot"
  input: "dnn/input_from_feature_columns/input_layer/age_X_sex_indicator_1/SparseToDense"
  input: "dnn/input_from_feature_columns/input_layer/age_X_sex_indicator_1/one_hot/depth"
  input: "dnn/input_from_feature_columns/input_layer/age_X_sex_indicator_1/one_hot/on_value"
  input: "dnn/input_from_feature_columns/input_layer/age_X_sex_indicator_1/one_hot/off_value"
  attr {
    key: "T"
    value {
      type: DT_FLOAT
    }
  }
  attr {
    key: "TI"
    value {
      type: DT_INT64
    }
  }
  attr {
    key: "_output_shapes"
    value {
      list {
        shape {
          dim {
            size: -1
          }
          dim {
            size: -1
          }
          dim {
            size: 100
          }
        }
      }
    }
  }
  attr {
    key: "axis"
    value {
      i: -1
    }
  }
}
node {
  name: "dnn/input_from_feature_columns/input_layer/age_X_sex_indicator_1/Sum/reduction_indices"
  op: "Const"
  attr {
    key: "_output_shapes"
    value {
      list {
        shape {
          dim {
            size: 1
          }
        }
      }
    }
  }
  attr {
    key: "dtype"
    value {
      type: DT_INT32
    }
  }
  attr {
    key: "value"
    value {
      tensor {
        dtype: DT_INT32
        tensor_shape {
          dim {
            size: 1
          }
        }
        int_val: -2
      }
    }
  }
}
node {
  name: "dnn/input_from_feature_columns/input_layer/age_X_sex_indicator_1/Sum"
  op: "Sum"
  input: "dnn/input_from_feature_columns/input_layer/age_X_sex_indicator_1/one_hot"
  input: "dnn/input_from_feature_columns/input_layer/age_X_sex_indicator_1/Sum/reduction_indices"
  attr {
    key: "T"
    value {
      type: DT_FLOAT
    }
  }
  attr {
    key: "Tidx"
    value {
      type: DT_INT32
    }
  }
  attr {
    key: "_output_shapes"
    value {
      list {
        shape {
          dim {
            size: -1
          }
          dim {
            size: 100
          }
        }
      }
    }
  }
  attr {
    key: "keep_dims"
    value {
      b: false
    }
  }
}
node {
  name: "dnn/input_from_feature_columns/input_layer/age_X_sex_indicator_1/Shape"
  op: "Shape"
  input: "dnn/input_from_feature_columns/input_layer/age_X_sex_indicator_1/Sum"
  attr {
    key: "T"
    value {
      type: DT_FLOAT
    }
  }
  attr {
    key: "_output_shapes"
    value {
      list {
        shape {
          dim {
            size: 2
          }
        }
      }
    }
  }
  attr {
    key: "out_type"
    value {
      type: DT_INT32
    }
  }
}
node {
  name: "dnn/input_from_feature_columns/input_layer/age_X_sex_indicator_1/strided_slice/stack"
  op: "Const"
  attr {
    key: "_output_shapes"
    value {
      list {
        shape {
          dim {
            size: 1
          }
        }
      }
    }
  }
  attr {
    key: "dtype"
    value {
      type: DT_INT32
    }
  }
  attr {
    key: "value"
    value {
      tensor {
        dtype: DT_INT32
        tensor_shape {
          dim {
            size: 1
          }
        }
        int_val: 0
      }
    }
  }
}
node {
  name: "dnn/input_from_feature_columns/input_layer/age_X_sex_indicator_1/strided_slice/stack_1"
  op: "Const"
  attr {
    key: "_output_shapes"
    value {
      list {
        shape {
          dim {
            size: 1
          }
        }
      }
    }
  }
  attr {
    key: "dtype"
    value {
      type: DT_INT32
    }
  }
  attr {
    key: "value"
    value {
      tensor {
        dtype: DT_INT32
        tensor_shape {
          dim {
            size: 1
          }
        }
        int_val: 1
      }
    }
  }
}
node {
  name: "dnn/input_from_feature_columns/input_layer/age_X_sex_indicator_1/strided_slice/stack_2"
  op: "Const"
  attr {
    key: "_output_shapes"
    value {
      list {
        shape {
          dim {
            size: 1
          }
        }
      }
    }
  }
  attr {
    key: "dtype"
    value {
      type: DT_INT32
    }
  }
  attr {
    key: "value"
    value {
      tensor {
        dtype: DT_INT32
        tensor_shape {
          dim {
            size: 1
          }
        }
        int_val: 1
      }
    }
  }
}
node {
  name: "dnn/input_from_feature_columns/input_layer/age_X_sex_indicator_1/strided_slice"
  op: "StridedSlice"
  input: "dnn/input_from_feature_columns/input_layer/age_X_sex_indicator_1/Shape"
  input: "dnn/input_from_feature_columns/input_layer/age_X_sex_indicator_1/strided_slice/stack"
  input: "dnn/input_from_feature_columns/input_layer/age_X_sex_indicator_1/strided_slice/stack_1"
  input: "dnn/input_from_feature_columns/input_layer/age_X_sex_indicator_1/strided_slice/stack_2"
  attr {
    key: "Index"
    value {
      type: DT_INT32
    }
  }
  attr {
    key: "T"
    value {
      type: DT_INT32
    }
  }
  attr {
    key: "_output_shapes"
    value {
      list {
        shape {
        }
      }
    }
  }
  attr {
    key: "begin_mask"
    value {
      i: 0
    }
  }
  attr {
    key: "ellipsis_mask"
    value {
      i: 0
    }
  }
  attr {
    key: "end_mask"
    value {
      i: 0
    }
  }
  attr {
    key: "new_axis_mask"
    value {
      i: 0
    }
  }
  attr {
    key: "shrink_axis_mask"
    value {
      i: 1
    }
  }
}
node {
  name: "dnn/input_from_feature_columns/input_layer/age_X_sex_indicator_1/Reshape/shape/1"
  op: "Const"
  attr {
    key: "_output_shapes"
    value {
      list {
        shape {
        }
      }
    }
  }
  attr {
    key: "dtype"
    value {
      type: DT_INT32
    }
  }
  attr {
    key: "value"
    value {
      tensor {
        dtype: DT_INT32
        tensor_shape {
        }
        int_val: 100
      }
    }
  }
}
node {
  name: "dnn/input_from_feature_columns/input_layer/age_X_sex_indicator_1/Reshape/shape"
  op: "Pack"
  input: "dnn/input_from_feature_columns/input_layer/age_X_sex_indicator_1/strided_slice"
  input: "dnn/input_from_feature_columns/input_layer/age_X_sex_indicator_1/Reshape/shape/1"
  attr {
    key: "N"
    value {
      i: 2
    }
  }
  attr {
    key: "T"
    value {
      type: DT_INT32
    }
  }
  attr {
    key: "_output_shapes"
    value {
      list {
        shape {
          dim {
            size: 2
          }
        }
      }
    }
  }
  attr {
    key: "axis"
    value {
      i: 0
    }
  }
}
node {
  name: "dnn/input_from_feature_columns/input_layer/age_X_sex_indicator_1/Reshape"
  op: "Reshape"
  input: "dnn/input_from_feature_columns/input_layer/age_X_sex_indicator_1/Sum"
  input: "dnn/input_from_feature_columns/input_layer/age_X_sex_indicator_1/Reshape/shape"
  attr {
    key: "T"
    value {
      type: DT_FLOAT
    }
  }
  attr {
    key: "Tshape"
    value {
      type: DT_INT32
    }
  }
  attr {
    key: "_output_shapes"
    value {
      list {
        shape {
          dim {
            size: -1
          }
          dim {
            size: 100
          }
        }
      }
    }
  }
}
node {
  name: "dnn/input_from_feature_columns/input_layer/alone_indicator_1/ExpandDims/dim"
  op: "Const"
  attr {
    key: "_output_shapes"
    value {
      list {
        shape {
        }
      }
    }
  }
  attr {
    key: "dtype"
    value {
      type: DT_INT32
    }
  }
  attr {
    key: "value"
    value {
      tensor {
        dtype: DT_INT32
        tensor_shape {
        }
        int_val: -1
      }
    }
  }
}
node {
  name: "dnn/input_from_feature_columns/input_layer/alone_indicator_1/ExpandDims"
  op: "ExpandDims"
  input: "IteratorGetNext:1"
  input: "dnn/input_from_feature_columns/input_layer/alone_indicator_1/ExpandDims/dim"
  attr {
    key: "T"
    value {
      type: DT_STRING
    }
  }
  attr {
    key: "Tdim"
    value {
      type: DT_INT32
    }
  }
  attr {
    key: "_output_shapes"
    value {
      list {
        shape {
          dim {
            size: -1
          }
          dim {
            size: 1
          }
        }
      }
    }
  }
}
node {
  name: "dnn/input_from_feature_columns/input_layer/alone_indicator_1/to_sparse_input/ignore_value/x"
  op: "Const"
  attr {
    key: "_output_shapes"
    value {
      list {
        shape {
        }
      }
    }
  }
  attr {
    key: "dtype"
    value {
      type: DT_STRING
    }
  }
  attr {
    key: "value"
    value {
      tensor {
        dtype: DT_STRING
        tensor_shape {
        }
        string_val: ""
      }
    }
  }
}
node {
  name: "dnn/input_from_feature_columns/input_layer/alone_indicator_1/to_sparse_input/NotEqual"
  op: "NotEqual"
  input: "dnn/input_from_feature_columns/input_layer/alone_indicator_1/ExpandDims"
  input: "dnn/input_from_feature_columns/input_layer/alone_indicator_1/to_sparse_input/ignore_value/x"
  attr {
    key: "T"
    value {
      type: DT_STRING
    }
  }
  attr {
    key: "_output_shapes"
    value {
      list {
        shape {
          dim {
            size: -1
          }
          dim {
            size: 1
          }
        }
      }
    }
  }
  attr {
    key: "incompatible_shape_error"
    value {
      b: true
    }
  }
}
node {
  name: "dnn/input_from_feature_columns/input_layer/alone_indicator_1/to_sparse_input/indices"
  op: "Where"
  input: "dnn/input_from_feature_columns/input_layer/alone_indicator_1/to_sparse_input/NotEqual"
  attr {
    key: "T"
    value {
      type: DT_BOOL
    }
  }
  attr {
    key: "_output_shapes"
    value {
      list {
        shape {
          dim {
            size: -1
          }
          dim {
            size: 2
          }
        }
      }
    }
  }
}
node {
  name: "dnn/input_from_feature_columns/input_layer/alone_indicator_1/to_sparse_input/values"
  op: "GatherNd"
  input: "dnn/input_from_feature_columns/input_layer/alone_indicator_1/ExpandDims"
  input: "dnn/input_from_feature_columns/input_layer/alone_indicator_1/to_sparse_input/indices"
  attr {
    key: "Tindices"
    value {
      type: DT_INT64
    }
  }
  attr {
    key: "Tparams"
    value {
      type: DT_STRING
    }
  }
  attr {
    key: "_output_shapes"
    value {
      list {
        shape {
          dim {
            size: -1
          }
        }
      }
    }
  }
}
node {
  name: "dnn/input_from_feature_columns/input_layer/alone_indicator_1/to_sparse_input/dense_shape"
  op: "Shape"
  input: "dnn/input_from_feature_columns/input_layer/alone_indicator_1/ExpandDims"
  attr {
    key: "T"
    value {
      type: DT_STRING
    }
  }
  attr {
    key: "_output_shapes"
    value {
      list {
        shape {
          dim {
            size: 2
          }
        }
      }
    }
  }
  attr {
    key: "out_type"
    value {
      type: DT_INT64
    }
  }
}
node {
  name: "dnn/input_from_feature_columns/input_layer/alone_indicator_1/alone_lookup/Const"
  op: "Const"
  attr {
    key: "_output_shapes"
    value {
      list {
        shape {
          dim {
            size: 2
          }
        }
      }
    }
  }
  attr {
    key: "dtype"
    value {
      type: DT_STRING
    }
  }
  attr {
    key: "value"
    value {
      tensor {
        dtype: DT_STRING
        tensor_shape {
          dim {
            size: 2
          }
        }
        string_val: "n"
        string_val: "y"
      }
    }
  }
}
node {
  name: "dnn/input_from_feature_columns/input_layer/alone_indicator_1/alone_lookup/Size"
  op: "Const"
  attr {
    key: "_output_shapes"
    value {
      list {
        shape {
        }
      }
    }
  }
  attr {
    key: "dtype"
    value {
      type: DT_INT32
    }
  }
  attr {
    key: "value"
    value {
      tensor {
        dtype: DT_INT32
        tensor_shape {
        }
        int_val: 2
      }
    }
  }
}
node {
  name: "dnn/input_from_feature_columns/input_layer/alone_indicator_1/alone_lookup/range/start"
  op: "Const"
  attr {
    key: "_output_shapes"
    value {
      list {
        shape {
        }
      }
    }
  }
  attr {
    key: "dtype"
    value {
      type: DT_INT32
    }
  }
  attr {
    key: "value"
    value {
      tensor {
        dtype: DT_INT32
        tensor_shape {
        }
        int_val: 0
      }
    }
  }
}
node {
  name: "dnn/input_from_feature_columns/input_layer/alone_indicator_1/alone_lookup/range/delta"
  op: "Const"
  attr {
    key: "_output_shapes"
    value {
      list {
        shape {
        }
      }
    }
  }
  attr {
    key: "dtype"
    value {
      type: DT_INT32
    }
  }
  attr {
    key: "value"
    value {
      tensor {
        dtype: DT_INT32
        tensor_shape {
        }
        int_val: 1
      }
    }
  }
}
node {
  name: "dnn/input_from_feature_columns/input_layer/alone_indicator_1/alone_lookup/range"
  op: "Range"
  input: "dnn/input_from_feature_columns/input_layer/alone_indicator_1/alone_lookup/range/start"
  input: "dnn/input_from_feature_columns/input_layer/alone_indicator_1/alone_lookup/Size"
  input: "dnn/input_from_feature_columns/input_layer/alone_indicator_1/alone_lookup/range/delta"
  attr {
    key: "Tidx"
    value {
      type: DT_INT32
    }
  }
  attr {
    key: "_output_shapes"
    value {
      list {
        shape {
          dim {
            size: 2
          }
        }
      }
    }
  }
}
node {
  name: "dnn/input_from_feature_columns/input_layer/alone_indicator_1/alone_lookup/Cast"
  op: "Cast"
  input: "dnn/input_from_feature_columns/input_layer/alone_indicator_1/alone_lookup/range"
  attr {
    key: "DstT"
    value {
      type: DT_INT64
    }
  }
  attr {
    key: "SrcT"
    value {
      type: DT_INT32
    }
  }
  attr {
    key: "Truncate"
    value {
      b: false
    }
  }
  attr {
    key: "_output_shapes"
    value {
      list {
        shape {
          dim {
            size: 2
          }
        }
      }
    }
  }
}
node {
  name: "dnn/input_from_feature_columns/input_layer/alone_indicator_1/alone_lookup/hash_table/Const"
  op: "Const"
  attr {
    key: "_output_shapes"
    value {
      list {
        shape {
        }
      }
    }
  }
  attr {
    key: "dtype"
    value {
      type: DT_INT64
    }
  }
  attr {
    key: "value"
    value {
      tensor {
        dtype: DT_INT64
        tensor_shape {
        }
        int64_val: -1
      }
    }
  }
}
node {
  name: "dnn/input_from_feature_columns/input_layer/alone_indicator_1/alone_lookup/hash_table/hash_table"
  op: "HashTableV2"
  attr {
    key: "_output_shapes"
    value {
      list {
        shape {
        }
      }
    }
  }
  attr {
    key: "container"
    value {
      s: ""
    }
  }
  attr {
    key: "key_dtype"
    value {
      type: DT_STRING
    }
  }
  attr {
    key: "shared_name"
    value {
      s: "hash_table_ab6b4c6e-3b00-42c5-821f-210cb809bcd3"
    }
  }
  attr {
    key: "use_node_name_sharing"
    value {
      b: false
    }
  }
  attr {
    key: "value_dtype"
    value {
      type: DT_INT64
    }
  }
}
node {
  name: "dnn/input_from_feature_columns/input_layer/alone_indicator_1/alone_lookup/hash_table/table_init/LookupTableImportV2"
  op: "LookupTableImportV2"
  input: "dnn/input_from_feature_columns/input_layer/alone_indicator_1/alone_lookup/hash_table/hash_table"
  input: "dnn/input_from_feature_columns/input_layer/alone_indicator_1/alone_lookup/Const"
  input: "dnn/input_from_feature_columns/input_layer/alone_indicator_1/alone_lookup/Cast"
  attr {
    key: "Tin"
    value {
      type: DT_STRING
    }
  }
  attr {
    key: "Tout"
    value {
      type: DT_INT64
    }
  }
}
node {
  name: "dnn/input_from_feature_columns/input_layer/alone_indicator_1/hash_table_Lookup/LookupTableFindV2"
  op: "LookupTableFindV2"
  input: "dnn/input_from_feature_columns/input_layer/alone_indicator_1/alone_lookup/hash_table/hash_table"
  input: "dnn/input_from_feature_columns/input_layer/alone_indicator_1/to_sparse_input/values"
  input: "dnn/input_from_feature_columns/input_layer/alone_indicator_1/alone_lookup/hash_table/Const"
  attr {
    key: "Tin"
    value {
      type: DT_STRING
    }
  }
  attr {
    key: "Tout"
    value {
      type: DT_INT64
    }
  }
  attr {
    key: "_output_shapes"
    value {
      list {
        shape {
          dim {
            size: -1
          }
        }
      }
    }
  }
}
node {
  name: "dnn/input_from_feature_columns/input_layer/alone_indicator_1/SparseToDense/default_value"
  op: "Const"
  attr {
    key: "_output_shapes"
    value {
      list {
        shape {
        }
      }
    }
  }
  attr {
    key: "dtype"
    value {
      type: DT_INT64
    }
  }
  attr {
    key: "value"
    value {
      tensor {
        dtype: DT_INT64
        tensor_shape {
        }
        int64_val: -1
      }
    }
  }
}
node {
  name: "dnn/input_from_feature_columns/input_layer/alone_indicator_1/SparseToDense"
  op: "SparseToDense"
  input: "dnn/input_from_feature_columns/input_layer/alone_indicator_1/to_sparse_input/indices"
  input: "dnn/input_from_feature_columns/input_layer/alone_indicator_1/to_sparse_input/dense_shape"
  input: "dnn/input_from_feature_columns/input_layer/alone_indicator_1/hash_table_Lookup/LookupTableFindV2"
  input: "dnn/input_from_feature_columns/input_layer/alone_indicator_1/SparseToDense/default_value"
  attr {
    key: "T"
    value {
      type: DT_INT64
    }
  }
  attr {
    key: "Tindices"
    value {
      type: DT_INT64
    }
  }
  attr {
    key: "_output_shapes"
    value {
      list {
        shape {
          dim {
            size: -1
          }
          dim {
            size: 1
          }
        }
      }
    }
  }
  attr {
    key: "validate_indices"
    value {
      b: true
    }
  }
}
node {
  name: "dnn/input_from_feature_columns/input_layer/alone_indicator_1/one_hot/Const"
  op: "Const"
  attr {
    key: "_output_shapes"
    value {
      list {
        shape {
        }
      }
    }
  }
  attr {
    key: "dtype"
    value {
      type: DT_FLOAT
    }
  }
  attr {
    key: "value"
    value {
      tensor {
        dtype: DT_FLOAT
        tensor_shape {
        }
        float_val: 1.0
      }
    }
  }
}
node {
  name: "dnn/input_from_feature_columns/input_layer/alone_indicator_1/one_hot/Const_1"
  op: "Const"
  attr {
    key: "_output_shapes"
    value {
      list {
        shape {
        }
      }
    }
  }
  attr {
    key: "dtype"
    value {
      type: DT_FLOAT
    }
  }
  attr {
    key: "value"
    value {
      tensor {
        dtype: DT_FLOAT
        tensor_shape {
        }
        float_val: 0.0
      }
    }
  }
}
node {
  name: "dnn/input_from_feature_columns/input_layer/alone_indicator_1/one_hot/depth"
  op: "Const"
  attr {
    key: "_output_shapes"
    value {
      list {
        shape {
        }
      }
    }
  }
  attr {
    key: "dtype"
    value {
      type: DT_INT32
    }
  }
  attr {
    key: "value"
    value {
      tensor {
        dtype: DT_INT32
        tensor_shape {
        }
        int_val: 2
      }
    }
  }
}
node {
  name: "dnn/input_from_feature_columns/input_layer/alone_indicator_1/one_hot/on_value"
  op: "Const"
  attr {
    key: "_output_shapes"
    value {
      list {
        shape {
        }
      }
    }
  }
  attr {
    key: "dtype"
    value {
      type: DT_FLOAT
    }
  }
  attr {
    key: "value"
    value {
      tensor {
        dtype: DT_FLOAT
        tensor_shape {
        }
        float_val: 1.0
      }
    }
  }
}
node {
  name: "dnn/input_from_feature_columns/input_layer/alone_indicator_1/one_hot/off_value"
  op: "Const"
  attr {
    key: "_output_shapes"
    value {
      list {
        shape {
        }
      }
    }
  }
  attr {
    key: "dtype"
    value {
      type: DT_FLOAT
    }
  }
  attr {
    key: "value"
    value {
      tensor {
        dtype: DT_FLOAT
        tensor_shape {
        }
        float_val: 0.0
      }
    }
  }
}
node {
  name: "dnn/input_from_feature_columns/input_layer/alone_indicator_1/one_hot"
  op: "OneHot"
  input: "dnn/input_from_feature_columns/input_layer/alone_indicator_1/SparseToDense"
  input: "dnn/input_from_feature_columns/input_layer/alone_indicator_1/one_hot/depth"
  input: "dnn/input_from_feature_columns/input_layer/alone_indicator_1/one_hot/on_value"
  input: "dnn/input_from_feature_columns/input_layer/alone_indicator_1/one_hot/off_value"
  attr {
    key: "T"
    value {
      type: DT_FLOAT
    }
  }
  attr {
    key: "TI"
    value {
      type: DT_INT64
    }
  }
  attr {
    key: "_output_shapes"
    value {
      list {
        shape {
          dim {
            size: -1
          }
          dim {
            size: 1
          }
          dim {
            size: 2
          }
        }
      }
    }
  }
  attr {
    key: "axis"
    value {
      i: -1
    }
  }
}
node {
  name: "dnn/input_from_feature_columns/input_layer/alone_indicator_1/Sum/reduction_indices"
  op: "Const"
  attr {
    key: "_output_shapes"
    value {
      list {
        shape {
          dim {
            size: 1
          }
        }
      }
    }
  }
  attr {
    key: "dtype"
    value {
      type: DT_INT32
    }
  }
  attr {
    key: "value"
    value {
      tensor {
        dtype: DT_INT32
        tensor_shape {
          dim {
            size: 1
          }
        }
        int_val: -2
      }
    }
  }
}
node {
  name: "dnn/input_from_feature_columns/input_layer/alone_indicator_1/Sum"
  op: "Sum"
  input: "dnn/input_from_feature_columns/input_layer/alone_indicator_1/one_hot"
  input: "dnn/input_from_feature_columns/input_layer/alone_indicator_1/Sum/reduction_indices"
  attr {
    key: "T"
    value {
      type: DT_FLOAT
    }
  }
  attr {
    key: "Tidx"
    value {
      type: DT_INT32
    }
  }
  attr {
    key: "_output_shapes"
    value {
      list {
        shape {
          dim {
            size: -1
          }
          dim {
            size: 2
          }
        }
      }
    }
  }
  attr {
    key: "keep_dims"
    value {
      b: false
    }
  }
}
node {
  name: "dnn/input_from_feature_columns/input_layer/alone_indicator_1/Shape"
  op: "Shape"
  input: "dnn/input_from_feature_columns/input_layer/alone_indicator_1/Sum"
  attr {
    key: "T"
    value {
      type: DT_FLOAT
    }
  }
  attr {
    key: "_output_shapes"
    value {
      list {
        shape {
          dim {
            size: 2
          }
        }
      }
    }
  }
  attr {
    key: "out_type"
    value {
      type: DT_INT32
    }
  }
}
node {
  name: "dnn/input_from_feature_columns/input_layer/alone_indicator_1/strided_slice/stack"
  op: "Const"
  attr {
    key: "_output_shapes"
    value {
      list {
        shape {
          dim {
            size: 1
          }
        }
      }
    }
  }
  attr {
    key: "dtype"
    value {
      type: DT_INT32
    }
  }
  attr {
    key: "value"
    value {
      tensor {
        dtype: DT_INT32
        tensor_shape {
          dim {
            size: 1
          }
        }
        int_val: 0
      }
    }
  }
}
node {
  name: "dnn/input_from_feature_columns/input_layer/alone_indicator_1/strided_slice/stack_1"
  op: "Const"
  attr {
    key: "_output_shapes"
    value {
      list {
        shape {
          dim {
            size: 1
          }
        }
      }
    }
  }
  attr {
    key: "dtype"
    value {
      type: DT_INT32
    }
  }
  attr {
    key: "value"
    value {
      tensor {
        dtype: DT_INT32
        tensor_shape {
          dim {
            size: 1
          }
        }
        int_val: 1
      }
    }
  }
}
node {
  name: "dnn/input_from_feature_columns/input_layer/alone_indicator_1/strided_slice/stack_2"
  op: "Const"
  attr {
    key: "_output_shapes"
    value {
      list {
        shape {
          dim {
            size: 1
          }
        }
      }
    }
  }
  attr {
    key: "dtype"
    value {
      type: DT_INT32
    }
  }
  attr {
    key: "value"
    value {
      tensor {
        dtype: DT_INT32
        tensor_shape {
          dim {
            size: 1
          }
        }
        int_val: 1
      }
    }
  }
}
node {
  name: "dnn/input_from_feature_columns/input_layer/alone_indicator_1/strided_slice"
  op: "StridedSlice"
  input: "dnn/input_from_feature_columns/input_layer/alone_indicator_1/Shape"
  input: "dnn/input_from_feature_columns/input_layer/alone_indicator_1/strided_slice/stack"
  input: "dnn/input_from_feature_columns/input_layer/alone_indicator_1/strided_slice/stack_1"
  input: "dnn/input_from_feature_columns/input_layer/alone_indicator_1/strided_slice/stack_2"
  attr {
    key: "Index"
    value {
      type: DT_INT32
    }
  }
  attr {
    key: "T"
    value {
      type: DT_INT32
    }
  }
  attr {
    key: "_output_shapes"
    value {
      list {
        shape {
        }
      }
    }
  }
  attr {
    key: "begin_mask"
    value {
      i: 0
    }
  }
  attr {
    key: "ellipsis_mask"
    value {
      i: 0
    }
  }
  attr {
    key: "end_mask"
    value {
      i: 0
    }
  }
  attr {
    key: "new_axis_mask"
    value {
      i: 0
    }
  }
  attr {
    key: "shrink_axis_mask"
    value {
      i: 1
    }
  }
}
node {
  name: "dnn/input_from_feature_columns/input_layer/alone_indicator_1/Reshape/shape/1"
  op: "Const"
  attr {
    key: "_output_shapes"
    value {
      list {
        shape {
        }
      }
    }
  }
  attr {
    key: "dtype"
…
        original_node_names: "Assert/data_1"
      }
    }
    node_def {
      name: "Assert/data_2"
      op: "Const"
      attr {
        key: "_output_shapes"
        value {
          list {
            shape {
            }
          }
        }
      }
      attr {
        key: "dtype"
        value {
          type: DT_STRING
        }
      }
      attr {
        key: "value"
        value {
          tensor {
            dtype: DT_STRING
            tensor_shape {
            }
            string_val: "x (head/losses/Cast:0) = "
          }
        }
      }
      experimental_debug_info {
        original_node_names: "Assert/data_2"
      }
    }
    node_def {
      name: "Assert"
      op: "Assert"
      input: "assert_head_losses_check_label_range_assert_non_negative_assert_less_equal_all"
      input: "Assert/data_0:output:0"
      input: "Assert/data_1:output:0"
      input: "Assert/data_2:output:0"
      input: "assert_head_losses_cast"
      attr {
        key: "T"
        value {
          list {
            type: DT_STRING
            type: DT_STRING
            type: DT_STRING
            type: DT_FLOAT
          }
        }
      }
      attr {
        key: "_output_shapes"
        value {
          list {
          }
        }
      }
      attr {
        key: "summarize"
        value {
          i: 3
        }
      }
      experimental_debug_info {
        original_node_names: "Assert"
      }
    }
    node_def {
      name: "Identity"
      op: "Identity"
      input: "assert_head_losses_check_label_range_assert_non_negative_assert_less_equal_all"
      input: "^Assert"
      attr {
        key: "T"
        value {
          type: DT_BOOL
        }
      }
      attr {
        key: "_output_shapes"
        value {
          list {
            shape {
            }
          }
        }
      }
      experimental_debug_info {
        original_node_names: "Identity"
      }
    }
    ret {
      key: "identity"
      value: "Identity:output:0"
    }
    attr {
      key: "_input_shapes"
      value {
        list {
          shape {
          }
          shape {
            dim {
              size: -1
            }
            dim {
              size: 1
            }
          }
        }
      }
    }
  }
  function {
    signature {
      name: "dnn_zero_fraction_2_cond_false_7121"
      input_arg {
        name: "count_nonzero_notequal_dnn_logits_biasadd"
        type: DT_FLOAT
      }
      output_arg {
        name: "count_nonzero_nonzero_count"
        type: DT_INT64
      }
      output_arg {
        name: "optionalfromvalue"
        type: DT_VARIANT
      }
      output_arg {
        name: "optionalfromvalue_1"
        type: DT_VARIANT
      }
      output_arg {
        name: "optionalfromvalue_2"
        type: DT_VARIANT
      }
      output_arg {
        name: "optionalfromvalue_3"
        type: DT_VARIANT
      }
      output_arg {
        name: "optionalnone"
        type: DT_VARIANT
      }
    }
    node_def {
      name: "count_nonzero/zeros"
      op: "Const"
      attr {
        key: "_output_shapes"
        value {
          list {
            shape {
            }
          }
        }
      }
      attr {
        key: "dtype"
        value {
          type: DT_FLOAT
        }
      }
      attr {
        key: "value"
        value {
          tensor {
            dtype: DT_FLOAT
            tensor_shape {
            }
            float_val: 0.0
          }
        }
      }
      experimental_debug_info {
        original_node_names: "count_nonzero/zeros"
      }
    }
    node_def {
      name: "count_nonzero/NotEqual"
      op: "NotEqual"
      input: "count_nonzero_notequal_dnn_logits_biasadd"
      input: "count_nonzero/zeros:output:0"
      attr {
        key: "T"
        value {
          type: DT_FLOAT
        }
      }
      attr {
        key: "_output_shapes"
        value {
          list {
            shape {
              dim {
                size: -1
              }
              dim {
                size: 1
              }
            }
          }
        }
      }
      attr {
        key: "incompatible_shape_error"
        value {
          b: true
        }
      }
      experimental_debug_info {
        original_node_names: "count_nonzero/NotEqual"
      }
    }
    node_def {
      name: "count_nonzero/Cast"
      op: "Cast"
      input: "count_nonzero/NotEqual:z:0"
      attr {
        key: "DstT"
        value {
          type: DT_INT64
        }
      }
      attr {
        key: "SrcT"
        value {
          type: DT_BOOL
        }
      }
      attr {
        key: "Truncate"
        value {
          b: false
        }
      }
      attr {
        key: "_output_shapes"
        value {
          list {
            shape {
              dim {
                size: -1
              }
              dim {
                size: 1
              }
            }
          }
        }
      }
      experimental_debug_info {
        original_node_names: "count_nonzero/Cast"
      }
    }
    node_def {
      name: "count_nonzero/Const"
      op: "Const"
      attr {
        key: "_output_shapes"
        value {
          list {
            shape {
              dim {
                size: 2
              }
            }
          }
        }
      }
      attr {
        key: "dtype"
        value {
          type: DT_INT32
        }
      }
      attr {
        key: "value"
        value {
          tensor {
            dtype: DT_INT32
            tensor_shape {
              dim {
                size: 2
              }
            }
            tensor_content: "\000\000\000\000\001\000\000\000"
          }
        }
      }
      experimental_debug_info {
        original_node_names: "count_nonzero/Const"
      }
    }
    node_def {
      name: "count_nonzero/nonzero_count"
      op: "Sum"
      input: "count_nonzero/Cast:y:0"
      input: "count_nonzero/Const:output:0"
      attr {
        key: "T"
        value {
          type: DT_INT64
        }
      }
      attr {
        key: "Tidx"
        value {
          type: DT_INT32
        }
      }
      attr {
        key: "_output_shapes"
        value {
          list {
            shape {
            }
          }
        }
      }
      attr {
        key: "keep_dims"
        value {
          b: false
        }
      }
      experimental_debug_info {
        original_node_names: "count_nonzero/nonzero_count"
      }
    }
    node_def {
      name: "OptionalFromValue"
      op: "OptionalFromValue"
      input: "count_nonzero/zeros:output:0"
      attr {
        key: "Toutput_types"
        value {
          list {
            type: DT_FLOAT
          }
        }
      }
      attr {
        key: "_output_shapes"
        value {
          list {
            shape {
            }
          }
        }
      }
      experimental_debug_info {
        original_node_names: "OptionalFromValue"
      }
    }
    node_def {
      name: "OptionalFromValue_1"
      op: "OptionalFromValue"
      input: "count_nonzero/NotEqual:z:0"
      attr {
        key: "Toutput_types"
        value {
          list {
            type: DT_BOOL
          }
        }
      }
      attr {
        key: "_output_shapes"
        value {
          list {
            shape {
            }
          }
        }
      }
      experimental_debug_info {
        original_node_names: "OptionalFromValue_1"
      }
    }
    node_def {
      name: "OptionalFromValue_2"
      op: "OptionalFromValue"
      input: "count_nonzero/Cast:y:0"
      attr {
        key: "Toutput_types"
        value {
          list {
            type: DT_INT64
          }
        }
      }
      attr {
        key: "_output_shapes"
        value {
          list {
            shape {
            }
          }
        }
      }
      experimental_debug_info {
        original_node_names: "OptionalFromValue_2"
      }
    }
    node_def {
      name: "OptionalFromValue_3"
      op: "OptionalFromValue"
      input: "count_nonzero/Const:output:0"
      attr {
        key: "Toutput_types"
        value {
          list {
            type: DT_INT32
          }
        }
      }
      attr {
        key: "_output_shapes"
        value {
          list {
            shape {
            }
          }
        }
      }
      experimental_debug_info {
        original_node_names: "OptionalFromValue_3"
      }
    }
    node_def {
      name: "OptionalNone"
      op: "OptionalNone"
      attr {
        key: "_output_shapes"
        value {
          list {
            shape {
            }
          }
        }
      }
      experimental_debug_info {
        original_node_names: "OptionalNone"
      }
    }
    ret {
      key: "count_nonzero_nonzero_count"
      value: "count_nonzero/nonzero_count:output:0"
    }
    ret {
      key: "optionalfromvalue"
      value: "OptionalFromValue:optional:0"
    }
    ret {
      key: "optionalfromvalue_1"
      value: "OptionalFromValue_1:optional:0"
    }
    ret {
      key: "optionalfromvalue_2"
      value: "OptionalFromValue_2:optional:0"
    }
    ret {
      key: "optionalfromvalue_3"
      value: "OptionalFromValue_3:optional:0"
    }
    ret {
      key: "optionalnone"
      value: "OptionalNone:optional:0"
    }
    attr {
      key: "_input_shapes"
      value {
        list {
          shape {
            dim {
              size: -1
            }
            dim {
              size: 1
            }
          }
        }
      }
    }
  }
  function {
    signature {
      name: "head_losses_check_label_range_assert_less_equal_Assert_AssertGuard_false_7246"
      input_arg {
        name: "assert_head_losses_check_label_range_assert_less_equal_all"
        type: DT_BOOL
      }
      input_arg {
        name: "assert_head_losses_cast"
        type: DT_FLOAT
      }
      input_arg {
        name: "assert_head_losses_check_label_range_const"
        type: DT_FLOAT
      }
      output_arg {
        name: "identity"
        type: DT_BOOL
      }
      is_stateful: true
    }
    node_def {
      name: "Assert/data_0"
      op: "Const"
      attr {
        key: "_output_shapes"
        value {
          list {
            shape {
            }
          }
        }
      }
      attr {
        key: "dtype"
        value {
          type: DT_STRING
        }
      }
      attr {
        key: "value"
        value {
          tensor {
            dtype: DT_STRING
            tensor_shape {
            }
            string_val: "Labels must be <= n_classes - 1"
          }
        }
      }
      experimental_debug_info {
        original_node_names: "Assert/data_0"
      }
    }
    node_def {
      name: "Assert/data_1"
      op: "Const"
      attr {
        key: "_output_shapes"
        value {
          list {
            shape {
            }
          }
        }
      }
      attr {
        key: "dtype"
        value {
          type: DT_STRING
        }
      }
      attr {
        key: "value"
        value {
          tensor {
            dtype: DT_STRING
            tensor_shape {
            }
            string_val: "Condition x <= y did not hold element-wise:"
          }
        }
      }
      experimental_debug_info {
        original_node_names: "Assert/data_1"
      }
    }
    node_def {
      name: "Assert/data_2"
      op: "Const"
      attr {
        key: "_output_shapes"
        value {
          list {
            shape {
            }
          }
        }
      }
      attr {
        key: "dtype"
        value {
          type: DT_STRING
        }
      }
      attr {
        key: "value"
        value {
          tensor {
            dtype: DT_STRING
            tensor_shape {
            }
            string_val: "x (head/losses/Cast:0) = "
          }
        }
      }
      experimental_debug_info {
        original_node_names: "Assert/data_2"
      }
    }
    node_def {
      name: "Assert/data_4"
      op: "Const"
      attr {
        key: "_output_shapes"
        value {
          list {
            shape {
            }
          }
        }
      }
      attr {
        key: "dtype"
        value {
          type: DT_STRING
        }
      }
      attr {
        key: "value"
        value {
          tensor {
            dtype: DT_STRING
            tensor_shape {
            }
            string_val: "y (head/losses/check_label_range/Const:0) = "
          }
        }
      }
      experimental_debug_info {
        original_node_names: "Assert/data_4"
      }
    }
    node_def {
      name: "Assert"
      op: "Assert"
      input: "assert_head_losses_check_label_range_assert_less_equal_all"
      input: "Assert/data_0:output:0"
      input: "Assert/data_1:output:0"
      input: "Assert/data_2:output:0"
      input: "assert_head_losses_cast"
      input: "Assert/data_4:output:0"
      input: "assert_head_losses_check_label_range_const"
      attr {
        key: "T"
        value {
          list {
            type: DT_STRING
            type: DT_STRING
            type: DT_STRING
            type: DT_FLOAT
            type: DT_STRING
            type: DT_FLOAT
          }
        }
      }
      attr {
        key: "_output_shapes"
        value {
          list {
          }
        }
      }
      attr {
        key: "summarize"
        value {
          i: 3
        }
      }
      experimental_debug_info {
        original_node_names: "Assert"
      }
    }
    node_def {
      name: "Identity"
      op: "Identity"
      input: "assert_head_losses_check_label_range_assert_less_equal_all"
      input: "^Assert"
      attr {
        key: "T"
        value {
          type: DT_BOOL
        }
      }
      attr {
        key: "_output_shapes"
        value {
          list {
            shape {
            }
          }
        }
      }
      experimental_debug_info {
        original_node_names: "Identity"
      }
    }
    ret {
      key: "identity"
      value: "Identity:output:0"
    }
    attr {
      key: "_input_shapes"
      value {
        list {
          shape {
          }
          shape {
            dim {
              size: -1
            }
            dim {
              size: 1
            }
          }
          shape {
          }
        }
      }
    }
  }
  function {
    signature {
      name: "dnn_zero_fraction_2_cond_true_7120"
      input_arg {
        name: "count_nonzero_notequal_dnn_logits_biasadd"
        type: DT_FLOAT
      }
      output_arg {
        name: "cast"
        type: DT_INT64
      }
      output_arg {
        name: "optionalfromvalue"
        type: DT_VARIANT
      }
      output_arg {
        name: "optionalfromvalue_1"
        type: DT_VARIANT
      }
      output_arg {
        name: "optionalfromvalue_2"
        type: DT_VARIANT
      }
      output_arg {
        name: "optionalfromvalue_3"
        type: DT_VARIANT
      }
      output_arg {
        name: "optionalfromvalue_4"
        type: DT_VARIANT
      }
    }
    node_def {
      name: "count_nonzero/zeros"
      op: "Const"
      attr {
        key: "_output_shapes"
        value {
          list {
            shape {
            }
          }
        }
      }
      attr {
        key: "dtype"
        value {
          type: DT_FLOAT
        }
      }
      attr {
        key: "value"
        value {
          tensor {
            dtype: DT_FLOAT
            tensor_shape {
            }
            float_val: 0.0
          }
        }
      }
      experimental_debug_info {
        original_node_names: "count_nonzero/zeros"
      }
    }
    node_def {
      name: "count_nonzero/NotEqual"
      op: "NotEqual"
      input: "count_nonzero_notequal_dnn_logits_biasadd"
      input: "count_nonzero/zeros:output:0"
      attr {
        key: "T"
        value {
          type: DT_FLOAT
        }
      }
      attr {
        key: "_output_shapes"
        value {
          list {
            shape {
              dim {
                size: -1
              }
              dim {
                size: 1
              }
            }
          }
        }
      }
      attr {
        key: "incompatible_shape_error"
        value {
          b: true
        }
      }
      experimental_debug_info {
        original_node_names: "count_nonzero/NotEqual"
      }
    }
    node_def {
      name: "count_nonzero/Cast"
      op: "Cast"
      input: "count_nonzero/NotEqual:z:0"
      attr {
        key: "DstT"
        value {
          type: DT_INT32
        }
      }
      attr {
        key: "SrcT"
        value {
          type: DT_BOOL
        }
      }
      attr {
        key: "Truncate"
        value {
          b: false
        }
      }
      attr {
        key: "_output_shapes"
        value {
          list {
            shape {
              dim {
                size: -1
              }
              dim {
                size: 1
              }
            }
          }
        }
      }
      experimental_debug_info {
        original_node_names: "count_nonzero/Cast"
      }
    }
    node_def {
      name: "count_nonzero/Const"
      op: "Const"
      attr {
        key: "_output_shapes"
        value {
          list {
            shape {
              dim {
                size: 2
              }
            }
          }
        }
      }
      attr {
        key: "dtype"
        value {
          type: DT_INT32
        }
      }
      attr {
        key: "value"
        value {
          tensor {
            dtype: DT_INT32
            tensor_shape {
              dim {
                size: 2
              }
            }
            tensor_content: "\000\000\000\000\001\000\000\000"
          }
        }
      }
      experimental_debug_info {
        original_node_names: "count_nonzero/Const"
      }
    }
    node_def {
      name: "count_nonzero/nonzero_count"
      op: "Sum"
      input: "count_nonzero/Cast:y:0"
      input: "count_nonzero/Const:output:0"
      attr {
        key: "T"
        value {
          type: DT_INT32
        }
      }
      attr {
        key: "Tidx"
        value {
          type: DT_INT32
        }
      }
      attr {
        key: "_output_shapes"
        value {
          list {
            shape {
            }
          }
        }
      }
      attr {
        key: "keep_dims"
        value {
          b: false
        }
      }
      experimental_debug_info {
        original_node_names: "count_nonzero/nonzero_count"
      }
    }
    node_def {
      name: "Cast"
      op: "Cast"
      input: "count_nonzero/nonzero_count:output:0"
      attr {
        key: "DstT"
        value {
          type: DT_INT64
        }
      }
      attr {
        key: "SrcT"
        value {
          type: DT_INT32
        }
      }
      attr {
        key: "Truncate"
        value {
          b: false
        }
      }
      attr {
        key: "_output_shapes"
        value {
          list {
            shape {
            }
          }
        }
      }
      experimental_debug_info {
        original_node_names: "Cast"
      }
    }
    node_def {
      name: "OptionalFromValue"
      op: "OptionalFromValue"
      input: "count_nonzero/zeros:output:0"
      attr {
        key: "Toutput_types"
        value {
          list {
            type: DT_FLOAT
          }
        }
      }
      attr {
        key: "_output_shapes"
        value {
          list {
            shape {
            }
          }
        }
      }
      experimental_debug_info {
        original_node_names: "OptionalFromValue"
      }
    }
    node_def {
      name: "OptionalFromValue_1"
      op: "OptionalFromValue"
      input: "count_nonzero/NotEqual:z:0"
      attr {
        key: "Toutput_types"
        value {
          list {
            type: DT_BOOL
          }
        }
      }
      attr {
        key: "_output_shapes"
        value {
          list {
            shape {
            }
          }
        }
      }
      experimental_debug_info {
        original_node_names: "OptionalFromValue_1"
      }
    }
    node_def {
      name: "OptionalFromValue_2"
      op: "OptionalFromValue"
      input: "count_nonzero/Cast:y:0"
      attr {
        key: "Toutput_types"
        value {
          list {
            type: DT_INT32
          }
        }
      }
      attr {
        key: "_output_shapes"
        value {
          list {
            shape {
            }
          }
        }
      }
      experimental_debug_info {
        original_node_names: "OptionalFromValue_2"
      }
    }
    node_def {
      name: "OptionalFromValue_3"
      op: "OptionalFromValue"
      input: "count_nonzero/Const:output:0"
      attr {
        key: "Toutput_types"
        value {
          list {
            type: DT_INT32
          }
        }
      }
      attr {
        key: "_output_shapes"
        value {
          list {
            shape {
            }
          }
        }
      }
      experimental_debug_info {
        original_node_names: "OptionalFromValue_3"
      }
    }
    node_def {
      name: "OptionalFromValue_4"
      op: "OptionalFromValue"
      input: "count_nonzero/nonzero_count:output:0"
      attr {
        key: "Toutput_types"
        value {
          list {
            type: DT_INT32
          }
        }
      }
      attr {
        key: "_output_shapes"
        value {
          list {
            shape {
            }
          }
        }
      }
      experimental_debug_info {
        original_node_names: "OptionalFromValue_4"
      }
    }
    ret {
      key: "cast"
      value: "Cast:y:0"
    }
    ret {
      key: "optionalfromvalue"
      value: "OptionalFromValue:optional:0"
    }
    ret {
      key: "optionalfromvalue_1"
      value: "OptionalFromValue_1:optional:0"
    }
    ret {
      key: "optionalfromvalue_2"
      value: "OptionalFromValue_2:optional:0"
    }
    ret {
      key: "optionalfromvalue_3"
      value: "OptionalFromValue_3:optional:0"
    }
    ret {
      key: "optionalfromvalue_4"
      value: "OptionalFromValue_4:optional:0"
    }
    attr {
      key: "_input_shapes"
      value {
        list {
          shape {
            dim {
              size: -1
            }
            dim {
              size: 1
            }
          }
        }
      }
    }
  }
  function {
    signature {
      name: "head_losses_check_label_range_assert_less_equal_Assert_AssertGuard_true_7245"
      input_arg {
        name: "identity_head_losses_check_label_range_assert_less_equal_all"
        type: DT_BOOL
      }
      input_arg {
        name: "placeholder"
        type: DT_FLOAT
      }
      input_arg {
        name: "placeholder_1"
        type: DT_FLOAT
      }
      output_arg {
        name: "identity"
        type: DT_BOOL
      }
    }
    node_def {
      name: "NoOp"
      op: "NoOp"
      attr {
        key: "_output_shapes"
        value {
          list {
          }
        }
      }
      experimental_debug_info {
        original_node_names: "NoOp"
      }
    }
    node_def {
      name: "Identity"
      op: "Identity"
      input: "identity_head_losses_check_label_range_assert_less_equal_all"
      input: "^NoOp"
      attr {
        key: "T"
        value {
          type: DT_BOOL
        }
      }
      attr {
        key: "_output_shapes"
        value {
          list {
            shape {
            }
          }
        }
      }
      experimental_debug_info {
        original_node_names: "Identity"
      }
    }
    ret {
      key: "identity"
      value: "Identity:output:0"
    }
    attr {
      key: "_input_shapes"
      value {
        list {
          shape {
          }
          shape {
            dim {
              size: -1
            }
            dim {
              size: 1
            }
          }
          shape {
          }
        }
      }
    }
  }
  function {
    signature {
      name: "global_step_cond_true_6622"
      input_arg {
        name: "read_readvariableop_global_step"
        type: DT_RESOURCE
      }
      input_arg {
        name: "placeholder"
        type: DT_INT64
      }
      output_arg {
        name: "identity"
        type: DT_INT64
      }
      is_stateful: true
    }
    node_def {
      name: "Read/ReadVariableOp"
      op: "ReadVariableOp"
      input: "read_readvariableop_global_step"
      attr {
        key: "_output_shapes"
        value {
          list {
            shape {
            }
          }
        }
      }
      attr {
        key: "dtype"
        value {
          type: DT_INT64
        }
      }
      experimental_debug_info {
        original_node_names: "Read/ReadVariableOp"
      }
    }
    node_def {
      name: "Identity"
      op: "Identity"
      input: "Read/ReadVariableOp:value:0"
      attr {
        key: "T"
        value {
          type: DT_INT64
        }
      }
      attr {
        key: "_output_shapes"
        value {
          list {
            shape {
            }
          }
        }
      }
      experimental_debug_info {
        original_node_names: "Identity"
      }
    }
    ret {
      key: "identity"
      value: "Identity:output:0"
    }
    attr {
      key: "_input_shapes"
      value {
        list {
          shape {
            unknown_rank: true
          }
          shape {
          }
        }
      }
    }
  }
  function {
    signature {
      name: "dnn_zero_fraction_cond_true_6981"
      input_arg {
        name: "count_nonzero_notequal_dnn_hiddenlayer_0_relu"
        type: DT_FLOAT
      }
      output_arg {
        name: "cast"
        type: DT_INT64
      }
      output_arg {
        name: "optionalfromvalue"
        type: DT_VARIANT
      }
      output_arg {
        name: "optionalfromvalue_1"
        type: DT_VARIANT
      }
      output_arg {
        name: "optionalfromvalue_2"
        type: DT_VARIANT
      }
      output_arg {
        name: "optionalfromvalue_3"
        type: DT_VARIANT
      }
      output_arg {
        name: "optionalfromvalue_4"
        type: DT_VARIANT
      }
    }
    node_def {
      name: "count_nonzero/zeros"
      op: "Const"
      attr {
        key: "_output_shapes"
        value {
          list {
            shape {
            }
          }
        }
      }
      attr {
        key: "dtype"
        value {
          type: DT_FLOAT
        }
      }
      attr {
        key: "value"
        value {
          tensor {
            dtype: DT_FLOAT
            tensor_shape {
            }
            float_val: 0.0
          }
        }
      }
      experimental_debug_info {
        original_node_names: "count_nonzero/zeros"
      }
    }
    node_def {
      name: "count_nonzero/NotEqual"
      op: "NotEqual"
      input: "count_nonzero_notequal_dnn_hiddenlayer_0_relu"
      input: "count_nonzero/zeros:output:0"
      attr {
        key: "T"
        value {
          type: DT_FLOAT
        }
      }
      attr {
        key: "_output_shapes"
        value {
          list {
            shape {
              dim {
                size: -1
              }
              dim {
                size: 128
              }
            }
          }
        }
      }
      attr {
        key: "incompatible_shape_error"
        value {
          b: true
        }
      }
      experimental_debug_info {
        original_node_names: "count_nonzero/NotEqual"
      }
    }
    node_def {
      name: "count_nonzero/Cast"
      op: "Cast"
      input: "count_nonzero/NotEqual:z:0"
      attr {
        key: "DstT"
        value {
          type: DT_INT32
        }
      }
      attr {
        key: "SrcT"
        value {
          type: DT_BOOL
        }
      }
      attr {
        key: "Truncate"
        value {
          b: false
        }
      }
      attr {
        key: "_output_shapes"
        value {
          list {
            shape {
              dim {
                size: -1
              }
              dim {
                size: 128
              }
            }
          }
        }
      }
      experimental_debug_info {
        original_node_names: "count_nonzero/Cast"
      }
    }
    node_def {
      name: "count_nonzero/Const"
      op: "Const"
      attr {
        key: "_output_shapes"
        value {
          list {
            shape {
              dim {
                size: 2
              }
            }
          }
        }
      }
      attr {
        key: "dtype"
        value {
          type: DT_INT32
        }
      }
      attr {
        key: "value"
        value {
          tensor {
            dtype: DT_INT32
            tensor_shape {
              dim {
                size: 2
              }
            }
            tensor_content: "\000\000\000\000\001\000\000\000"
          }
        }
      }
      experimental_debug_info {
        original_node_names: "count_nonzero/Const"
      }
    }
    node_def {
      name: "count_nonzero/nonzero_count"
      op: "Sum"
      input: "count_nonzero/Cast:y:0"
      input: "count_nonzero/Const:output:0"
      attr {
        key: "T"
        value {
          type: DT_INT32
        }
      }
      attr {
        key: "Tidx"
        value {
          type: DT_INT32
        }
      }
      attr {
        key: "_output_shapes"
        value {
          list {
            shape {
            }
          }
        }
      }
      attr {
        key: "keep_dims"
        value {
          b: false
        }
      }
      experimental_debug_info {
        original_node_names: "count_nonzero/nonzero_count"
      }
    }
    node_def {
      name: "Cast"
      op: "Cast"
      input: "count_nonzero/nonzero_count:output:0"
      attr {
        key: "DstT"
        value {
          type: DT_INT64
        }
      }
      attr {
        key: "SrcT"
        value {
          type: DT_INT32
        }
      }
      attr {
        key: "Truncate"
        value {
          b: false
        }
      }
      attr {
        key: "_output_shapes"
        value {
          list {
            shape {
            }
          }
        }
      }
      experimental_debug_info {
        original_node_names: "Cast"
      }
    }
    node_def {
      name: "OptionalFromValue"
      op: "OptionalFromValue"
      input: "count_nonzero/zeros:output:0"
      attr {
        key: "Toutput_types"
        value {
          list {
            type: DT_FLOAT
          }
        }
      }
      attr {
        key: "_output_shapes"
        value {
          list {
            shape {
            }
          }
        }
      }
      experimental_debug_info {
        original_node_names: "OptionalFromValue"
      }
    }
    node_def {
      name: "OptionalFromValue_1"
      op: "OptionalFromValue"
      input: "count_nonzero/NotEqual:z:0"
      attr {
        key: "Toutput_types"
        value {
          list {
            type: DT_BOOL
          }
        }
      }
      attr {
        key: "_output_shapes"
        value {
          list {
            shape {
            }
          }
        }
      }
      experimental_debug_info {
        original_node_names: "OptionalFromValue_1"
      }
    }
    node_def {
      name: "OptionalFromValue_2"
      op: "OptionalFromValue"
      input: "count_nonzero/Cast:y:0"
      attr {
        key: "Toutput_types"
        value {
          list {
            type: DT_INT32
          }
        }
      }
      attr {
        key: "_output_shapes"
        value {
          list {
            shape {
            }
          }
        }
      }
      experimental_debug_info {
        original_node_names: "OptionalFromValue_2"
      }
    }
    node_def {
      name: "OptionalFromValue_3"
      op: "OptionalFromValue"
      input: "count_nonzero/Const:output:0"
      attr {
        key: "Toutput_types"
        value {
          list {
            type: DT_INT32
          }
        }
      }
      attr {
        key: "_output_shapes"
        value {
          list {
            shape {
            }
          }
        }
      }
      experimental_debug_info {
        original_node_names: "OptionalFromValue_3"
      }
    }
    node_def {
      name: "OptionalFromValue_4"
      op: "OptionalFromValue"
      input: "count_nonzero/nonzero_count:output:0"
      attr {
        key: "Toutput_types"
        value {
          list {
            type: DT_INT32
          }
        }
      }
      attr {
        key: "_output_shapes"
        value {
          list {
            shape {
            }
          }
        }
      }
      experimental_debug_info {
        original_node_names: "OptionalFromValue_4"
      }
    }
    ret {
      key: "cast"
      value: "Cast:y:0"
    }
    ret {
      key: "optionalfromvalue"
      value: "OptionalFromValue:optional:0"
    }
    ret {
      key: "optionalfromvalue_1"
      value: "OptionalFromValue_1:optional:0"
    }
    ret {
      key: "optionalfromvalue_2"
      value: "OptionalFromValue_2:optional:0"
    }
    ret {
      key: "optionalfromvalue_3"
      value: "OptionalFromValue_3:optional:0"
    }
    ret {
      key: "optionalfromvalue_4"
      value: "OptionalFromValue_4:optional:0"
    }
    attr {
      key: "_input_shapes"
      value {
        list {
          shape {
            dim {
              size: -1
            }
            dim {
              size: 128
            }
          }
        }
      }
    }
  }
  function {
    signature {
      name: "dnn_zero_fraction_cond_false_6982"
      input_arg {
        name: "count_nonzero_notequal_dnn_hiddenlayer_0_relu"
        type: DT_FLOAT
      }
      output_arg {
        name: "count_nonzero_nonzero_count"
        type: DT_INT64
      }
      output_arg {
        name: "optionalfromvalue"
        type: DT_VARIANT
      }
      output_arg {
        name: "optionalfromvalue_1"
        type: DT_VARIANT
      }
      output_arg {
        name: "optionalfromvalue_2"
        type: DT_VARIANT
      }
      output_arg {
        name: "optionalfromvalue_3"
        type: DT_VARIANT
      }
      output_arg {
        name: "optionalnone"
        type: DT_VARIANT
      }
    }
    node_def {
      name: "count_nonzero/zeros"
      op: "Const"
      attr {
        key: "_output_shapes"
        value {
          list {
            shape {
            }
          }
        }
      }
      attr {
        key: "dtype"
        value {
          type: DT_FLOAT
        }
      }
      attr {
        key: "value"
        value {
          tensor {
            dtype: DT_FLOAT
            tensor_shape {
            }
            float_val: 0.0
          }
        }
      }
      experimental_debug_info {
        original_node_names: "count_nonzero/zeros"
      }
    }
    node_def {
      name: "count_nonzero/NotEqual"
      op: "NotEqual"
      input: "count_nonzero_notequal_dnn_hiddenlayer_0_relu"
      input: "count_nonzero/zeros:output:0"
      attr {
        key: "T"
        value {
          type: DT_FLOAT
        }
      }
      attr {
        key: "_output_shapes"
        value {
          list {
            shape {
              dim {
                size: -1
              }
              dim {
                size: 128
              }
            }
          }
        }
      }
      attr {
        key: "incompatible_shape_error"
        value {
          b: true
        }
      }
      experimental_debug_info {
        original_node_names: "count_nonzero/NotEqual"
      }
    }
    node_def {
      name: "count_nonzero/Cast"
      op: "Cast"
      input: "count_nonzero/NotEqual:z:0"
      attr {
        key: "DstT"
        value {
          type: DT_INT64
        }
      }
      attr {
        key: "SrcT"
        value {
          type: DT_BOOL
        }
      }
      attr {
        key: "Truncate"
        value {
          b: false
        }
      }
      attr {
        key: "_output_shapes"
        value {
          list {
            shape {
              dim {
                size: -1
              }
              dim {
                size: 128
              }
            }
          }
        }
      }
      experimental_debug_info {
        original_node_names: "count_nonzero/Cast"
      }
    }
    node_def {
      name: "count_nonzero/Const"
      op: "Const"
      attr {
        key: "_output_shapes"
        value {
          list {
            shape {
              dim {
                size: 2
              }
            }
          }
        }
      }
      attr {
        key: "dtype"
        value {
          type: DT_INT32
        }
      }
      attr {
        key: "value"
        value {
          tensor {
            dtype: DT_INT32
            tensor_shape {
              dim {
                size: 2
              }
            }
            tensor_content: "\000\000\000\000\001\000\000\000"
          }
        }
      }
      experimental_debug_info {
        original_node_names: "count_nonzero/Const"
      }
    }
    node_def {
      name: "count_nonzero/nonzero_count"
      op: "Sum"
      input: "count_nonzero/Cast:y:0"
      input: "count_nonzero/Const:output:0"
      attr {
        key: "T"
        value {
          type: DT_INT64
        }
      }
      attr {
        key: "Tidx"
        value {
          type: DT_INT32
        }
      }
      attr {
        key: "_output_shapes"
        value {
          list {
            shape {
            }
          }
        }
      }
      attr {
        key: "keep_dims"
        value {
          b: false
        }
      }
      experimental_debug_info {
        original_node_names: "count_nonzero/nonzero_count"
      }
    }
    node_def {
      name: "OptionalFromValue"
      op: "OptionalFromValue"
      input: "count_nonzero/zeros:output:0"
      attr {
        key: "Toutput_types"
        value {
          list {
            type: DT_FLOAT
          }
        }
      }
      attr {
        key: "_output_shapes"
        value {
          list {
            shape {
            }
          }
        }
      }
      experimental_debug_info {
        original_node_names: "OptionalFromValue"
      }
    }
    node_def {
      name: "OptionalFromValue_1"
      op: "OptionalFromValue"
      input: "count_nonzero/NotEqual:z:0"
      attr {
        key: "Toutput_types"
        value {
          list {
            type: DT_BOOL
          }
        }
      }
      attr {
        key: "_output_shapes"
        value {
          list {
            shape {
            }
          }
        }
      }
      experimental_debug_info {
        original_node_names: "OptionalFromValue_1"
      }
    }
    node_def {
      name: "OptionalFromValue_2"
      op: "OptionalFromValue"
      input: "count_nonzero/Cast:y:0"
      attr {
        key: "Toutput_types"
        value {
          list {
            type: DT_INT64
          }
        }
      }
      attr {
        key: "_output_shapes"
        value {
          list {
            shape {
            }
          }
        }
      }
      experimental_debug_info {
        original_node_names: "OptionalFromValue_2"
      }
    }
    node_def {
      name: "OptionalFromValue_3"
      op: "OptionalFromValue"
      input: "count_nonzero/Const:output:0"
      attr {
        key: "Toutput_types"
        value {
          list {
            type: DT_INT32
          }
        }
      }
      attr {
        key: "_output_shapes"
        value {
          list {
            shape {
            }
          }
        }
      }
      experimental_debug_info {
        original_node_names: "OptionalFromValue_3"
      }
    }
    node_def {
      name: "OptionalNone"
      op: "OptionalNone"
      attr {
        key: "_output_shapes"
        value {
          list {
            shape {
            }
          }
        }
      }
      experimental_debug_info {
        original_node_names: "OptionalNone"
      }
    }
    ret {
      key: "count_nonzero_nonzero_count"
      value: "count_nonzero/nonzero_count:output:0"
    }
    ret {
      key: "optionalfromvalue"
      value: "OptionalFromValue:optional:0"
    }
    ret {
      key: "optionalfromvalue_1"
      value: "OptionalFromValue_1:optional:0"
    }
    ret {
      key: "optionalfromvalue_2"
      value: "OptionalFromValue_2:optional:0"
    }
    ret {
      key: "optionalfromvalue_3"
      value: "OptionalFromValue_3:optional:0"
    }
    ret {
      key: "optionalnone"
      value: "OptionalNone:optional:0"
    }
    attr {
      key: "_input_shapes"
      value {
        list {
          shape {
            dim {
              size: -1
            }
            dim {
              size: 128
            }
          }
        }
      }
    }
  }
  function {
    signature {
      name: "head_losses_check_label_range_assert_non_negative_assert_less_equal_Assert_AssertGuard_true_7270"
      input_arg {
        name: "identity_head_losses_check_label_range_assert_non_negative_assert_less_equal_all"
        type: DT_BOOL
      }
      input_arg {
        name: "placeholder"
        type: DT_FLOAT
      }
      output_arg {
        name: "identity"
        type: DT_BOOL
      }
    }
    node_def {
      name: "NoOp"
      op: "NoOp"
      attr {
        key: "_output_shapes"
        value {
          list {
          }
        }
      }
      experimental_debug_info {
        original_node_names: "NoOp"
      }
    }
    node_def {
      name: "Identity"
      op: "Identity"
      input: "identity_head_losses_check_label_range_assert_non_negative_assert_less_equal_all"
      input: "^NoOp"
      attr {
        key: "T"
        value {
          type: DT_BOOL
        }
      }
      attr {
        key: "_output_shapes"
        value {
          list {
            shape {
            }
          }
        }
      }
      experimental_debug_info {
        original_node_names: "Identity"
      }
    }
    ret {
      key: "identity"
      value: "Identity:output:0"
    }
    attr {
      key: "_input_shapes"
      value {
        list {
          shape {
          }
          shape {
            dim {
              size: -1
            }
            dim {
              size: 1
            }
          }
        }
      }
    }
  }
  function {
    signature {
      name: "global_step_cond_false_6623"
      input_arg {
        name: "placeholder"
        type: DT_RESOURCE
      }
      input_arg {
        name: "global_step_initializer_zeros_0"
        type: DT_INT64
      }
      output_arg {
        name: "global_step_initializer_zeros"
        type: DT_INT64
      }
    }
    ret {
      key: "global_step_initializer_zeros"
      value: "global_step_initializer_zeros_0"
    }
    attr {
      key: "_input_shapes"
      value {
        list {
          shape {
            unknown_rank: true
          }
          shape {
          }
        }
      }
    }
  }
  function {
    signature {
      name: "dnn_zero_fraction_1_cond_false_7052"
      input_arg {
        name: "count_nonzero_notequal_dnn_hiddenlayer_1_relu"
        type: DT_FLOAT
      }
      output_arg {
        name: "count_nonzero_nonzero_count"
        type: DT_INT64
      }
      output_arg {
        name: "optionalfromvalue"
        type: DT_VARIANT
      }
      output_arg {
        name: "optionalfromvalue_1"
        type: DT_VARIANT
      }
      output_arg {
        name: "optionalfromvalue_2"
        type: DT_VARIANT
      }
      output_arg {
        name: "optionalfromvalue_3"
        type: DT_VARIANT
      }
      output_arg {
        name: "optionalnone"
        type: DT_VARIANT
      }
    }
    node_def {
      name: "count_nonzero/zeros"
      op: "Const"
      attr {
        key: "_output_shapes"
        value {
          list {
            shape {
            }
          }
        }
      }
      attr {
        key: "dtype"
        value {
          type: DT_FLOAT
        }
      }
      attr {
        key: "value"
        value {
          tensor {
            dtype: DT_FLOAT
            tensor_shape {
            }
            float_val: 0.0
          }
        }
      }
      experimental_debug_info {
        original_node_names: "count_nonzero/zeros"
      }
    }
    node_def {
      name: "count_nonzero/NotEqual"
      op: "NotEqual"
      input: "count_nonzero_notequal_dnn_hiddenlayer_1_relu"
      input: "count_nonzero/zeros:output:0"
      attr {
        key: "T"
        value {
          type: DT_FLOAT
        }
      }
      attr {
        key: "_output_shapes"
        value {
          list {
            shape {
              dim {
                size: -1
              }
              dim {
                size: 128
              }
            }
          }
        }
      }
      attr {
        key: "incompatible_shape_error"
        value {
          b: true
        }
      }
      experimental_debug_info {
        original_node_names: "count_nonzero/NotEqual"
      }
    }
    node_def {
      name: "count_nonzero/Cast"
      op: "Cast"
      input: "count_nonzero/NotEqual:z:0"
      attr {
        key: "DstT"
        value {
          type: DT_INT64
        }
      }
      attr {
        key: "SrcT"
        value {
          type: DT_BOOL
        }
      }
      attr {
        key: "Truncate"
        value {
          b: false
        }
      }
      attr {
        key: "_output_shapes"
        value {
          list {
            shape {
              dim {
                size: -1
              }
              dim {
                size: 128
              }
            }
          }
        }
      }
      experimental_debug_info {
        original_node_names: "count_nonzero/Cast"
      }
    }
    node_def {
      name: "count_nonzero/Const"
      op: "Const"
      attr {
        key: "_output_shapes"
        value {
          list {
            shape {
              dim {
                size: 2
              }
            }
          }
        }
      }
      attr {
        key: "dtype"
        value {
          type: DT_INT32
        }
      }
      attr {
        key: "value"
        value {
          tensor {
            dtype: DT_INT32
            tensor_shape {
              dim {
                size: 2
              }
            }
            tensor_content: "\000\000\000\000\001\000\000\000"
          }
        }
      }
      experimental_debug_info {
        original_node_names: "count_nonzero/Const"
      }
    }
    node_def {
      name: "count_nonzero/nonzero_count"
      op: "Sum"
      input: "count_nonzero/Cast:y:0"
      input: "count_nonzero/Const:output:0"
      attr {
        key: "T"
        value {
          type: DT_INT64
        }
      }
      attr {
        key: "Tidx"
        value {
          type: DT_INT32
        }
      }
      attr {
        key: "_output_shapes"
        value {
          list {
            shape {
            }
          }
        }
      }
      attr {
        key: "keep_dims"
        value {
          b: false
        }
      }
      experimental_debug_info {
        original_node_names: "count_nonzero/nonzero_count"
      }
    }
    node_def {
      name: "OptionalFromValue"
      op: "OptionalFromValue"
      input: "count_nonzero/zeros:output:0"
      attr {
        key: "Toutput_types"
        value {
          list {
            type: DT_FLOAT
          }
        }
      }
      attr {
        key: "_output_shapes"
        value {
          list {
            shape {
            }
          }
        }
      }
      experimental_debug_info {
        original_node_names: "OptionalFromValue"
      }
    }
    node_def {
      name: "OptionalFromValue_1"
      op: "OptionalFromValue"
      input: "count_nonzero/NotEqual:z:0"
      attr {
        key: "Toutput_types"
        value {
          list {
            type: DT_BOOL
          }
        }
      }
      attr {
        key: "_output_shapes"
        value {
          list {
            shape {
            }
          }
        }
      }
      experimental_debug_info {
        original_node_names: "OptionalFromValue_1"
      }
    }
    node_def {
      name: "OptionalFromValue_2"
      op: "OptionalFromValue"
      input: "count_nonzero/Cast:y:0"
      attr {
        key: "Toutput_types"
        value {
          list {
            type: DT_INT64
          }
        }
      }
      attr {
        key: "_output_shapes"
        value {
          list {
            shape {
            }
          }
        }
      }
      experimental_debug_info {
        original_node_names: "OptionalFromValue_2"
      }
    }
    node_def {
      name: "OptionalFromValue_3"
      op: "OptionalFromValue"
      input: "count_nonzero/Const:output:0"
      attr {
        key: "Toutput_types"
        value {
          list {
            type: DT_INT32
          }
        }
      }
      attr {
        key: "_output_shapes"
        value {
          list {
            shape {
            }
          }
        }
      }
      experimental_debug_info {
        original_node_names: "OptionalFromValue_3"
      }
    }
    node_def {
      name: "OptionalNone"
      op: "OptionalNone"
      attr {
        key: "_output_shapes"
        value {
          list {
            shape {
            }
          }
        }
      }
      experimental_debug_info {
        original_node_names: "OptionalNone"
      }
    }
    ret {
      key: "count_nonzero_nonzero_count"
      value: "count_nonzero/nonzero_count:output:0"
    }
    ret {
      key: "optionalfromvalue"
      value: "OptionalFromValue:optional:0"
    }
    ret {
      key: "optionalfromvalue_1"
      value: "OptionalFromValue_1:optional:0"
    }
    ret {
      key: "optionalfromvalue_2"
      value: "OptionalFromValue_2:optional:0"
    }
    ret {
      key: "optionalfromvalue_3"
      value: "OptionalFromValue_3:optional:0"
    }
    ret {
      key: "optionalnone"
      value: "OptionalNone:optional:0"
    }
    attr {
      key: "_input_shapes"
      value {
        list {
          shape {
            dim {
              size: -1
            }
            dim {
              size: 128
            }
          }
        }
      }
    }
  }
}
versions {
  producer: 175
  min_consumer: 12
}
